results/tetris6/TetrisAgent/TetrisAgent-37876.onnx (onnx, 175963 bytes, 6 tensors)

network_body._body_endoder.seq_layers.0.weight f4 [128, 200]
000000 e1 2f 22 3e 1e 69 20 bb e2 a5 e3 3d b5 f2 d6 3c
       0.15838577 -0.0024476717 0.11115624 0.026238779
000010 f4 34 46 3e 8b 60 31 bd 9b b1 cf 3d f8 ec 4c 3d
       0.19356138 -0.04330496 0.101412974 0.05003068
000020 07 09 39 3e f2 14 96 3d 27 f1 2b be a6 a9 2a 3c
       0.1806985 0.07328214 -0.16791211 0.010416424
000030 4b a2 90 bb 0f 17 dd 3d 20 19 86 bd dc b9 2c be
       -0.004413878 0.10795414 -0.06547761 -0.16867775
000040 76 b9 8b 3d c0 20 a5 3c 79 6e dd bc ec ea 8e bd
       0.06822483 0.020157218 -0.027030217 -0.069784015
000050 a7 91 f7 3d fe 32 34 bd f6 a7 07 3d 0d 55 0d 3e
       0.12088328 -0.043993942 0.033119164 0.13801976
000060 4d 2d c4 bc a5 14 47 3d 1b e5 37 bd b2 06 94 3d
       -0.023947382 0.048603673 -0.044896226 0.072278395
000070 b9 3d 09 3d 2a 11 5f 3d 3f 0d a8 bd eb 50 5d 3e
       0.03350613 0.05445973 -0.082056515 0.21612899
000080 4c a0 52 3d bd 4a 1a 3d 18 59 95 bc c1 43 0f bc
       0.051422402 0.037668932 -0.01823096 -0.008744181
000090 b7 39 ec 3c 0f 94 07 3e 0a 6d ad bc ef ac 03 ba
       0.028836114 0.13240074 -0.021170158 -0.00050230225
0000a0 59 c8 85 bd 05 6f fd 3d 96 7c d8 3d a8 5a e5 3c
       -0.06532354 0.12374691 0.10570638 0.02799733
0000b0 d9 bf ba bd 4f 01 9f bc 3d e3 e4 bc 8d fe 25 ba
       -0.09118623 -0.019409804 -0.027940387 -0.00063321815
0000c0 41 ad 31 3d cb 65 68 3e 18 a3 8c bd 47 7c c4 3b
       0.04337812 0.22695081 -0.06867045 0.0059962603
0000d0 16 d0 0b bc ef 58 ca 3d 6d d9 60 bd 82 ca e8 3c
       -0.008533498 0.09880244 -0.054894853 0.028416876
0000e0 61 23 d5 3c a4 ed d4 3d 9b ec 9d 3d 11 e0 da 3d
       0.026017847 0.10396889 0.077111445 0.106872685
0000f0 2d 9e 7f bd 58 94 17 3d 59 c0 66 bd 4b ec d3 3d
       -0.062406708 0.037006706 -0.05633578 0.10347804
000100 a3 fd 69 3d ff 24 12 bd 72 ea 47 bd 40 b1 11 3d
       0.057126652 -0.035679813 -0.04880757 0.03556943
000110 93 2f 91 bd c7 4e 6b 3d 99 79 80 bb dd 66 2d be
       -0.07089152 0.057448175 -0.0039207456 -0.1693377
000120 61 e4 4e bc 4e ef 59 3c e4 63 a6 3d 02 78 03 be
       -0.012627692 0.013301684 0.081245214 -0.12838748
000130 87 d8 d2 3d d2 28 28 3d 7f f2 69 3d 6b 44 69 bd
       0.102952056 0.041054554 0.057116028 -0.056950014
000140 9e 63 32 3e 6b 05 43 bc 38 a2 f9 3d 2b 96 dd bb
       0.17420813 -0.011903147 0.12189144 -0.006762286
000150 0e 8c 38 bd ae ae ab 3c 51 cc 14 3d d2 44 13 bc
       -0.04505544 0.020957317 0.036327664 -0.008988576
000160 0b ec de bb 23 f6 c5 3d ff b7 ac 3b 22 ad 48 3e
       -0.006803041 0.096660875 0.0052709575 0.19597295
000170 2a 68 1a bb a3 70 a5 bd 20 74 de bd 51 97 a4 3c
       -0.0023560622 -0.080781244 -0.10861993 0.020091685
000180 b9 72 a7 3d 3f 31 40 3d 1b 4c de bd 25 73 6a 3d
       0.081761785 0.046921965 -0.1085436 0.057238717
000190 a5 c8 65 3b da db cc 3d 26 90 51 3d 99 04 e3 bc
       0.003506222 0.10002871 0.05116286 -0.027712153
0001a0 6c 47 43 bd 72 74 93 3d 40 45 98 bc 78 af 0b 3b
       -0.047675535 0.071999446 -0.018587708 0.0021314304
0001b0 f6 f3 50 3c fe 20 26 bd 39 88 99 bd d3 e8 58 3d
       0.012753477 -0.040558808 -0.074966855 0.052956413
0001c0 96 39 1d 3d 89 09 64 3d 59 a4 bf bd 5c 90 06 3d
       0.038384996 0.055673156 -0.09357519 0.032852516
0001d0 9f 3d 2e bd eb f5 59 bc f9 fa 68 bc 60 ab 08 3e
       -0.042539235 -0.01330326 -0.014219993 0.13346624
0001e0 1a 03 aa 3c 15 6c 98 bb c6 0a 51 3d ea 80 69 bd
       0.020753432 -0.0046515563 0.051035665 -0.057007708
0001f0 87 26 02 3e 00 62 72 bd 57 42 4b 3d a1 42 6f bc
       0.1271001 -0.05917549 0.049623813 -0.014603288
000200 3f f3 91 3c b8 bb bd 3d 2e f4 b7 bc 58 a4 30 3d
       0.017816184 0.0926432 -0.022455301 0.04312548
000210 aa e3 2a bd ae 87 e4 3c f0 89 f9 bd c1 c3 ff bd
       -0.041721024 0.027896728 -0.121845126 -0.12488509
000220 2b 65 40 bb 41 e0 d7 bd 4e ad c0 bc 70 d2 22 bd
       -0.0029357176 -0.1054082 -0.023520138 -0.03975147
000230 5f c7 70 bc a2 c8 52 bd 6a de 96 bc 8b 18 e3 bc
       -0.014695971 -0.05146087 -0.018416602 -0.027721664
000240 86 79 de 3d 22 a5 c1 3d 25 71 9c bc 29 b5 d5 3b
       0.108630225 0.09455325 -0.01909692 0.00652184
000250 25 37 8d 3c e4 d6 ca 3c 96 15 33 bc 34 89 29 bb
       0.017238209 0.024760671 -0.010930439 -0.0025869133
000260 75 23 09 bd d9 c9 23 bb c5 24 58 3d 7f f3 ef bc
       -0.03348108 -0.0024992137 0.05276944 -0.029290913
000270 6b 5a 87 bd a9 6a a9 b9 00 47 3a 3d 69 a4 b5 bd
       -0.06609043 -0.0003231366 0.045477867 -0.088692494
000280 90 98 de 3c f9 8f 44 3c d9 0f e2 bc 87 02 b2 bd
       0.027172357 0.011997216 -0.027595447 -0.08691888
000290 17 44 70 3d d2 c5 bd bd bc 93 ce bd e3 fa cf 3c
       0.058658686 -0.09266247 -0.10086772 0.025388187
0002a0 98 3a bb 3c b2 0f 90 3d 46 b3 9d 3d 1d ff 0a bd
       0.022855088 0.07034244 0.07700209 -0.0339347
0002b0 02 6f b1 3d df 58 09 be b4 b4 c5 bd 7a ae 47 be
       0.08663751 -0.13412808 -0.09653607 -0.19500151
0002c0 4b 60 8a 3d d4 63 c9 3d 63 b8 4d 3d f0 03 08 3d
       0.06756648 0.09833494 0.050224673 0.03320688
0002d0 62 41 5a bc 54 7f bf 3c 1d 70 e7 ba c3 3a 3f bc
       -0.013321253 0.023376144 -0.0017657314 -0.011671725
0002e0 e4 37 b1 bd 0f fe a5 bc f4 ee 6d bd ec e6 04 3e
       -0.086532384 -0.020262746 -0.05808921 0.12978715
0002f0 26 28 b7 3c 0a 9b 41 bd 51 f4 12 bd 08 eb 41 bd
       0.022358011 -0.047266997 -0.03587753 -0.047343284
000300 3d e2 2a 3e 80 20 ad 3d f9 9e ae 3d 1d 94 09 3e
       0.16687866 0.084534645 0.085264154 0.13435407
000310 b0 c4 27 3c 82 23 de 3d 06 92 9a 3c fc 04 04 3d
       0.010239765 0.10846616 0.018868458 0.032231316
000320 ab e7 8e 3d 99 c8 6d bc 1b da 2e bd 6c 35 04 3e
       0.06977781 -0.014513158 -0.04268847 0.12911004
000330 b8 c6 4a 3d c6 fe 08 3e cd 6d fa bc 8f d0 b2 3d
       0.04950592 0.13378438 -0.030569935 0.08731186
000340 a0 52 4c bd 4e 9e 18 3e 66 86 2b 3d 6c 58 1e 3d
       -0.049883485 0.14904138 0.04187622 0.038658544
000350 3a 7c 2c bc ac 4a 1d bd 6c 91 f8 3c 3d 8e ed 38
       -0.010527665 -0.03840129 0.03034278 0.000113275346
000360 b7 76 4a 3d b0 21 83 bd b2 36 79 bd da 96 d9 bd
       0.04942962 -0.0640291 -0.060843177 -0.10624476
000370 6c d3 e7 bd b7 8a 18 3d a8 5c d5 bd 23 84 16 bc
       -0.113196224 0.037241664 -0.104180634 -0.009186777
000380 07 bf 0f bd 68 94 c2 bd eb 79 25 bd a5 8d 03 bd
       -0.035094287 -0.095009625 -0.040399473 -0.032117505
000390 da 6a aa 3d e6 7f ca bd 68 5e cf 3c d7 78 b4 3b
       0.083211616 -0.09887676 0.025313571 0.0055075693
0003a0 f0 62 c6 3d 15 6c 04 3e 9e eb 97 3c 6c 97 43 be
       0.096868396 0.12931855 0.018544968 -0.19100732
0003b0 cb 90 ae bc fb 96 8c bc 11 b8 25 3c 50 9e 9c 3d
       -0.021309277 -0.017161837 0.010114686 0.07647383
0003c0 bb db 55 3e 26 dc 94 bc 7e b7 05 be 84 a9 a8 bd
       0.20884602 -0.018171381 -0.13058278 -0.082354575
0003d0 f3 76 e0 3d 7d 00 f3 bc b0 ec ab 3d 79 90 48 bc
       0.10960188 -0.029663319 0.08394754 -0.012241476
0003e0 7c 57 0c 3d 98 0a 6a bc 6f d3 3d bd d1 d2 8e bd
       0.03426312 -0.014284752 -0.046344217 -0.06973804
0003f0 e3 54 d3 bc d9 19 e1 3d 2f 0b df bc 29 9b e1 bb
       -0.025797313 0.10991258 -0.027227012 -0.0068849516

network_body._body_endoder.seq_layers.0.bias f4 [128]
000000 07 dc bd bd 1e 1a c3 bd dd 8f ca bd 37 a5 dd bd
       -0.092704825 -0.09526466 -0.09890721 -0.10822528
000010 12 3d d0 3d ae 37 bd 3d 17 1e cd bd e2 ba b4 3d
       0.10167898 0.09239136 -0.10015505 0.088247076
000020 8d be 42 bc 40 16 95 3d c1 54 ae 3d 91 76 ce 3d
       -0.011886251 0.072796345 0.08512259 0.100812085
000030 b5 2a c1 bd 8b 46 d8 3d ca 7b d8 bd 14 ea c8 bd
       -0.09431974 0.1056033 -0.10570486 -0.09810272
000040 52 49 cf bd 22 34 d7 bd bc 18 c7 bd 63 8f b7 3d
       -0.101214066 -0.105079904 -0.097215146 0.08962896
000050 a7 06 ae 3d 10 80 e0 bd ce a3 d6 bd cc 7f d1 bd
       0.084973626 -0.10961926 -0.10480462 -0.102294534
000060 18 9f bf 3d 51 52 c4 3d 59 82 a6 bd 2f 07 c2 3d
       0.093565166 0.09586013 -0.081303306 0.094740264
000070 35 c6 d1 bd e7 70 bd bd 91 50 f9 3d 9c 83 bf 3d
       -0.10242883 -0.0925005 0.1217357 0.09351274
000080 e9 a0 d7 bd 9d 82 d8 bd ee 55 70 bd 75 a6 bc bd
       -0.10528738 -0.105717875 -0.0586757 -0.09211437
000090 ef 25 b9 3d 9b d0 d7 bd da 35 d7 bd a9 e6 da bd
       0.090404384 -0.10537835 -0.10508318 -0.10688526
0000a0 32 1f e5 bd 4d 3c bd 3d 9f 59 9a 3d 6e e9 d3 bd
       -0.11187591 0.09240017 0.07536625 -0.103472576
0000b0 6d fa c0 bd 2c 7d df bd b7 4d c8 3d f9 88 c9 bd
       -0.09422765 -0.109125465 0.09780448 -0.098405786
0000c0 5b 23 da bd 2c 0b df bd bd 50 09 3d af 2f b7 bd
       -0.10651275 -0.10890803 0.033524264 -0.08944642
0000d0 07 de 86 3d 36 e4 c8 3d 1d 08 e2 bd ee 6e 02 bd
       0.06585317 0.09809153 -0.11036704 -0.031844072
0000e0 f9 b1 da 3d a3 ab 99 bd 4f 35 d9 bd 82 4c b6 3d
       0.10678477 -0.0750344 -0.10605871 0.089013115
0000f0 f3 71 9f 3d 34 b8 d3 bd b6 7d d3 bd 1c c7 e9 bd
       0.07785406 -0.10337868 -0.10326712 -0.1141493
000100 b2 d4 ce bd 52 ca ab 3d 68 f5 b6 3d 80 0f c7 bd
       -0.10099162 0.08388199 0.08933526 -0.09719753
000110 de 2c b8 bd ae be b8 bd 2c cd da 3d e8 8e cc bd
       -0.08992933 -0.09020744 0.10683665 -0.09988195
000120 ce af b7 3d de ed dd bd fd 84 b9 3d 80 7c c7 3d
       0.08969079 -0.10836385 0.090585686 0.09740543
000130 11 24 db 3d 81 82 b2 3d e3 d3 cc bd a6 7d e9 bd
       0.107002385 0.08716298 -0.10001352 -0.11400919
000140 6e a4 b6 3d 7d ec e2 bc e7 44 d0 bd 5f b7 ac bd
       0.08918081 -0.027700657 -0.10169392 -0.08433413
000150 6f 4f d0 bd 12 b1 b1 3d 38 13 d6 bd 9b 40 d4 3d
       -0.10171401 0.086763516 -0.104528844 0.10363885
000160 e3 0f e1 bd 19 3b bf bd 29 06 b0 3d 8f 6e de bd
       -0.10989358 -0.09337444 0.08594925 -0.10860931
000170 da 95 c8 3d fe 46 dc bd ea 78 b8 3d 28 bc e2 bd
       0.09794207 -0.10755728 0.090074375 -0.11071044
000180 5a db d5 3d da 07 ba 3d 4a 7d b8 3d 83 7f d5 bd
       0.104422286 0.09083529 0.09008272 -0.104247116
000190 18 9a ac 3d 6d 99 af 3d cd 48 b3 bd f6 2c cb 3d
       0.084278286 0.085741855 -0.0875412 0.09920685
0001a0 f5 21 cc 3d 4a c6 bd 3d ca 8e b0 3d e5 6a be 3d
       0.09967414 0.09266336 0.08620985 0.09297732
0001b0 98 d2 dc 3d 46 07 c9 bd f0 a7 cb bd 16 df a5 3d
       0.10782355 -0.098158404 -0.09944141 0.08099191
0001c0 95 6d c5 3d 53 ca be 3d ea 4c dc bd 7c fd c7 3d
       0.09640042 0.09315934 -0.10756858 0.09765145
0001d0 fe 29 bd 3d 69 8c b6 3d e9 64 c5 3d d5 ec de 3d
       0.09236525 0.089135 0.09638388 0.10885016
0001e0 0a 08 ce 3d c2 2e 87 3d cf 56 d3 bd af 1d c8 bd
       0.10060127 0.06600715 -0.10319292 -0.09771287
0001f0 3d b3 c4 3d ee 20 b3 bd a5 e8 e1 bd 2f 3e c6 bd
       0.096044995 -0.08746515 -0.110307015 -0.09679829

network_body._body_endoder.seq_layers.2.weight f4 [128, 128]
000000 08 3f 1b 3d d3 6b 7b 3d c1 a2 51 bd 2c c7 a2 bd
       0.03790191 0.061382126 -0.051180605 -0.07948145
000010 f4 97 ae bd 90 a6 0f 3c 33 15 1c bc bf 8e da bd
       -0.085250765 0.008767739 -0.009526539 -0.10671758
000020 f4 f6 eb bc 48 f4 5b bd 05 fe 7d bc 62 03 e0 3c
       -0.02880428 -0.05369976 -0.0155024575 0.027345363
000030 4d c9 83 3c 4e 8a 39 3e c3 8d 2f 3d f2 89 8c 3d
       0.016087199 0.18119165 0.042859804 0.068622485
000040 47 13 8f 3c fe c6 32 3e 9f 43 a1 3d 81 f8 5a be
       0.017465247 0.17458722 0.07874226 -0.21383859
000050 e1 81 49 3d 2c e1 53 3d 0c 92 bd 3c bd e4 74 3b
       0.049196128 0.051728413 0.02314093 0.0037367784
000060 4b ea b0 39 b7 a5 ae bd ae a3 1b 3e e9 8a 07 be
       0.00033743898 -0.08527701 0.15199158 -0.13236584
000070 95 21 9f bc 49 6a ea bc 07 f4 bc bd a2 f9 95 3b
       -0.019425193 -0.028615134 -0.09226232 0.0045768777
000080 a9 b1 7e 3d 59 b2 d8 3d 89 fe d9 bd 12 d0 88 3d
       0.06218115 0.10580892 -0.10644252 0.06680311
000090 0b 4b 5c bc 73 f2 4a 3e d7 c7 51 bd f7 73 9a bd
       -0.013445626 0.1981905 -0.051215973 -0.0754165
0000a0 7a 56 30 be b7 58 2b 3e b2 1c 1f 3e 35 6b f5 3c
       -0.17220488 0.16733061 0.1553829 0.029958347
0000b0 a9 3c 98 3d 18 d7 8d 3c be 3f 75 bd 77 2d 0b 3e
       0.07433445 0.017314479 -0.059875242 0.13591562
0000c0 e6 b8 5e bd 1f e7 3b 3e a9 d2 24 3e 36 11 17 be
       -0.05437555 0.18349884 0.16095985 -0.14752659
0000d0 88 79 05 be 0a ca 9e bb 0d df 8c bd 22 92 25 be
       -0.13034642 -0.0048458623 -0.06878481 -0.16169026
0000e0 9d 98 29 be 04 e0 26 bd f1 8a 52 bd ea 3f 18 3d
       -0.16562124 -0.04074098 -0.051402036 0.03717033
0000f0 55 79 54 3d b2 4a 58 3d 03 94 37 be 98 32 11 3d
       0.051873524 0.05280561 -0.17927556 0.03544864
000100 b1 bf 32 bc 43 95 87 bd 33 5b 01 3d a7 1e 13 3e
       -0.010909961 -0.06620266 0.031581115 0.14367162
000110 44 b4 75 bd 04 7b e3 3d 55 04 51 3c 9b e4 2f bc
       -0.059986368 0.11107448 0.0127573805 -0.010735656
000120 d3 7c f1 bd 1a b0 1b be 90 3a c3 bd b3 26 7b bd
       -0.117913865 -0.15203896 -0.09532654 -0.061316203
000130 85 48 80 bd 3b c7 46 bc 2b 49 88 3d fd 1c 5a bd
       -0.06263832 -0.012132461 0.06654581 -0.0532503
000140 5e c2 7f 3d 8d 94 63 3d 53 26 32 3e a1 5c 28 3d
       0.062441222 0.05556159 0.17397432 0.041103963
000150 53 56 a5 3d ac 2a ba bd 62 61 f9 3d 78 d8 c3 3d
       0.08073106 -0.0909017 0.121767774 0.095627725
000160 c6 66 ae bd 0b 54 1a 3e 19 fe 92 bc ba ed aa 3d
       -0.08515696 0.15071122 -0.017943429 0.08346124
000170 c6 b0 a2 bd 1a 22 e0 bc 75 f1 c7 bd f1 b6 91 3c
       -0.07943873 -0.02736001 -0.09762851 0.017787429
000180 ab 12 5f 3d 60 f5 cf bb a2 88 cc bc 48 8c 1a be
       0.054461163 -0.0063463897 -0.024967495 -0.15092576
000190 33 1a 6d 3d 83 02 db bc ac 2c 87 3b ea 36 90 bd
       0.057886314 -0.026734596 0.0041251983 -0.07041724
0001a0 43 c2 06 be 66 8f e0 bd 81 86 87 3b f1 ea 94 3c
       -0.13160042 -0.10964851 0.004135907 0.018178435
0001b0 35 31 9d bc 5f 51 af bb 97 1f 25 bc 5e 73 32 bd
       -0.019188503 -0.0053502764 -0.010078332 -0.043567054
0001c0 ba b4 ce bd 42 01 c7 3c 9a 0f 05 be a6 bc 04 be
       -0.100930646 0.024292592 -0.12994233 -0.12962589
0001d0 85 85 66 bd 66 f4 ec bd 89 92 11 3e 16 29 b7 bc
       -0.056279678 -0.11570053 0.14216055 -0.022358458
0001e0 ff 47 5a 3d 80 cf 7b 3d eb 04 a6 3d b6 41 e8 3d
       0.053291317 0.061477184 0.08106407 0.11340658
0001f0 36 19 e6 bd a1 a4 84 3d 9f ba 92 3d ad 1e a3 3d
       -0.11235277 0.06476713 0.071645014 0.07964835
000200 11 45 89 3e c2 7b 1f 3d 17 7c 26 3e b2 b4 48 bd
       0.26810506 0.038936384 0.16258274 -0.04900045
000210 63 ad 09 be 0e d0 fa 3d 19 b6 82 bd 02 cc b3 bd
       -0.13445048 0.122467145 -0.063823886 -0.08779146
000220 19 46 ac 3a 97 98 8b bd 9e be 79 be 91 77 fc bd
       0.0013143449 -0.068162136 -0.24389121 -0.12327493
000230 1f 53 ef 3d 9e 82 2d bd 65 3a 1d 3e 5a 93 5b 3e
       0.11685776 -0.042360894 0.15354307 0.21442929
000240 9c 00 78 bb 1c 66 af bc cc 1b 48 3e 4e 07 58 3c
       -0.003784216 -0.021410994 0.19541854 0.013185335
000250 29 06 13 be 2f 96 3d 3d 46 ae 20 3c b4 a4 b8 bc
       -0.14357819 0.046285804 0.009807175 -0.022539474
000260 2b bd 03 be f9 d2 c9 bd 30 06 06 3e 0c 70 07 be
       -0.1286513 -0.09854693 0.13088298 -0.13226336
000270 f3 af f2 3d ba e4 2d 3e d5 d2 36 be e1 12 0e be
       0.11849966 0.16981784 -0.17853864 -0.13874389
000280 b5 3d 30 3d e0 5b 27 3d 11 ca 92 bd b7 24 f3 bc
       0.0430276 0.040859103 -0.07167447 -0.029680593
000290 99 63 f9 bd b6 34 0e 3e 5e a3 f9 3d 08 dc 1d 3e
       -0.121772 0.13887295 0.12189363 0.15415967
0002a0 75 51 58 3e 49 32 cb bd 3a 6a 51 bd e8 a3 b8 3d
       0.21124823 -0.099217005 -0.051126696 0.09015638
0002b0 bc 68 02 3e 48 03 78 3d 8b bb 14 be 2c 52 d9 bd
       0.12735265 0.060550004 -0.14524667 -0.10611376
0002c0 46 93 df 3b 24 29 6e 3c 73 72 af 3d 91 0c a5 3d
       0.0068229763 0.014536176 0.08566751 0.080590375
0002d0 14 58 41 bd 2e 35 ce bd 9f d0 60 3c 33 dd ad 3d
       -0.04720314 -0.10068737 0.013721614 0.08489456
0002e0 c0 cd 9f 3d 1e b8 57 bc 07 f1 a7 3e 19 14 87 bd
       0.078029156 -0.013166456 0.32801077 -0.0659563
0002f0 c2 dd 14 bd ab a9 46 bd 92 7b b2 3d bd c4 5f bd
       -0.036344297 -0.04850165 0.087149754 -0.054630984
000300 c8 da ae 3c 53 37 22 be 8d fe 24 bd 6a f4 e3 3d
       0.021344557 -0.15841417 -0.04028182 0.11130603
000310 d8 0c 40 bc 4b 02 bd bd d8 48 e8 bd 78 bf 7a 3d
       -0.011721812 -0.09228953 -0.11342019 0.061217755
000320 48 02 43 be ea 35 b4 3d 09 31 0e be 88 5f 14 be
       -0.19043839 0.08799346 -0.13885893 -0.14489567
000330 f2 e6 13 bd 22 82 30 be 31 e1 70 3d ce df 1b 3e
       -0.03610892 -0.17237142 0.05880851 0.15222093
000340 dc 7e 04 be a4 04 4c 3b 01 19 37 3e a5 55 3f 3e
       -0.12939018 0.0031130696 0.17880632 0.18685015
000350 5e e7 b4 3c 00 63 2c 3b 9b 67 63 3e ce 3b bd bd
       0.02208298 0.0026304126 0.22207491 -0.092399225
000360 90 7a 50 3c 4f 95 31 3d 15 ac c4 bc 1b bd c1 3d
       0.012724534 0.043355282 -0.024007836 0.09459897
000370 f3 64 00 be 32 72 14 3c 9e 25 e1 bd 42 97 2c bd
       -0.12538509 0.009060429 -0.10993503 -0.04213644
000380 8e 4a 8e bd cf e1 d4 bb 2c 0f ad bd 6e 23 80 3d
       -0.06947814 -0.006496645 -0.084501594 0.06256758
000390 01 99 28 be 61 64 a9 3c 2f 2c c0 bd 99 70 c9 3d
       -0.16464616 0.020677747 -0.09383427 0.098359294
0003a0 e6 b7 0e be d1 23 1a 3d 7a f9 1c be 1c d5 0b bd
       -0.13937339 0.037631813 -0.15329543 -0.034138784
0003b0 e3 96 c6 3d 81 e1 78 3c 52 bd 3f 3d ad d2 03 3d
       0.09696748 0.015190483 0.04681141 0.032183338
0003c0 cf 5e 09 3c a9 52 8c 3c c6 f1 90 3d 5d 5d 05 3d
       0.008384421 0.01712926 0.070773646 0.03255974
0003d0 66 4d aa 3d 63 05 95 3d 43 b0 17 3c aa 73 ea bd
       0.08315544 0.07276418 0.009258333 -0.114478424
0003e0 c3 90 54 be 42 0f 11 be 85 8b 4d 3d 96 64 fe 3b
       -0.20758347 -0.14165977 0.050181884 0.0077634556
0003f0 55 a2 b9 bd 53 48 48 3d 6b b5 fa 3d 10 1a 6a bc
       -0.090641655 0.0488971 0.12241634 -0.01428844

network_body._body_endoder.seq_layers.2.bias f4 [128]
000000 3d 9d 2b bd 7b 36 9d bd 0c ee a6 3d b9 29 95 3d
       -0.041898 -0.07676407 0.081508726 0.072833486
000010 3d 83 90 bd 3f e7 a6 3d b8 48 3d bd 16 61 81 bd
       -0.07056282 0.081495754 -0.046211928 -0.06317346
000020 ae 24 ae 3d fb ad 86 bd ab 64 96 bd bf 86 83 bd
       0.0850309 -0.06576153 -0.0734342 -0.06422185
000030 15 02 98 bd 73 c7 aa 3d 03 e5 8f 3d 85 a7 9e 3d
       -0.07422272 0.08338823 0.070261024 0.077467956
000040 44 0e fc 3c d6 ea 72 bd 9f 0a 8d bd 92 83 a6 3d
       0.030768521 -0.05930599 -0.068867914 0.08130564
000050 1f 4a 86 bd 86 73 90 3d e7 23 8d bd 0d f8 7c 3d
       -0.06557106 0.07053284 -0.068916135 0.061759997
000060 77 04 8d bd ba 07 8b bd 65 55 a4 3d f5 c9 9f 3d
       -0.06885617 -0.06788583 0.080241 0.07802192
000070 35 2c ae 3d 4c 4e e0 bc 45 d7 a7 3d 82 a7 d9 3b
       0.085045256 -0.027381085 0.08195356 0.006642283
000080 39 b1 ae 3d 76 0c ac 3d 08 74 86 bd dd 99 91 bd
       0.08529896 0.08400814 -0.065651 -0.07109425
000090 1c 58 83 bd 52 12 7f bd cd 06 b4 3d f6 1a 93 3d
       -0.0641329 -0.06227333 0.0879036 0.07182877
0000a0 07 de 9c 3d 65 c9 9c 3d 56 62 f6 3c 5f 60 5d 3d
       0.07659536 0.076556005 0.030076187 0.054046985
0000b0 ca 68 96 bd b0 9b 1b 3d 70 37 a2 bd e7 5f ae 3d
       -0.07344206 0.037990272 -0.0792073 0.08514386
0000c0 44 7b 8e bd 60 16 bd 3d 91 b4 7f bd 3d e8 47 bd
       -0.06957105 0.09232783 -0.06242806 -0.048805464
0000d0 e4 e8 af 3d 34 bb a0 3d c4 c8 ae 3d d2 f4 93 bd
       0.08589342 0.07848206 0.08534387 -0.0722443
0000e0 b9 70 7c bd 72 98 b1 3d 66 97 a5 3d f7 f8 a9 3d
       -0.06163094 0.08671655 0.080855176 0.082994394
0000f0 2c 45 78 bd 5c e0 8b bd f4 55 80 bd 60 be 9d 3d
       -0.060612842 -0.068299025 -0.06266394 0.07702327
000100 28 0a 96 bd 4c 0b 98 3d dd 10 90 3d 5b 77 96 bd
       -0.07326156 0.0742403 0.070344664 -0.07346984
000110 26 cd ad 3d 27 34 b2 3d ef f6 96 3d e7 cc a2 bd
       0.084863946 0.087013535 0.073713176 -0.07949238
000120 7d 17 83 bd 67 77 97 3d ae 8b a8 3d 90 08 90 3d
       -0.064009644 0.07395821 0.08229767 0.07032883
000130 24 cf 58 bd 8b 38 55 3d 17 5f a0 3d b0 0c a0 3d
       -0.05293192 0.052055877 0.07830637 0.0781492
000140 f1 4f 93 3d bd f6 a9 3d e4 46 ab 3d c9 1e b6 3d
       0.07192982 0.08299015 0.08363131 0.088925906
000150 57 34 a3 3d 3c 4c aa 3d ce 88 a4 bd c8 82 a8 3d
       0.079689674 0.08315322 -0.08033906 0.082280695
000160 f7 06 8d bd b0 f8 95 bd 08 12 a1 bd ca 36 96 bd
       -0.06886094 -0.07322824 -0.07864767 -0.07334669
000170 35 4d 9b 3d f1 38 b4 3d a8 ef 84 3d 5b 4d ab 3d
       0.075830854 0.08799923 0.06491023 0.08364364
000180 12 67 98 bd 5d 76 9b 3d 56 48 a1 bd b5 2c 9a 3d
       -0.07441534 0.075909354 -0.07875125 0.075280584
000190 6a 6c ac 3d c5 67 ad 3d bb 22 90 bd a7 ec 91 3d
       0.08419116 0.08467058 -0.07037874 0.07125216
0001a0 e9 b5 99 3d 88 5a 8b bd fe ab 86 bd ab 34 ad 3d
       0.075054 -0.06804377 -0.06575774 0.08457311
0001b0 9e 9e 83 3d 35 f6 a1 bd f1 dc 48 3d 2a 5c af 3d
       0.06426738 -0.079082884 0.04903883 0.08562501
0001c0 01 3a 6c bd da da 9d 3d 6e 84 92 3d 28 6b 87 bd
       -0.057672504 0.07707758 0.07154165 -0.06612235
0001d0 a7 f6 40 3d 13 90 8b 3d 7a d2 a5 bd 2e e5 ac 3d
       0.047110226 0.06814589 -0.08096786 0.0844215
0001e0 cd db 9e bd 8c 63 77 3d cb 2e 52 bd 0e 28 a2 3d
       -0.077567674 0.06039767 -0.051314157 0.07917796
0001f0 bc 67 93 bd b8 5d 9e 3d aa 19 82 bd b9 af 64 bd
       -0.0719752 0.07732719 -0.06352551 -0.055831645

action_model._discrete_distribution.branches.0.weight f4 [4, 128]
000000 ec d2 17 bd 0d 6b 79 bc bb 01 82 3c a6 77 b8 3c
       -0.037066385 -0.015223277 0.015869966 0.02251799
000010 17 d8 9e bc 4e 07 e2 3c 99 0f a6 3b 3f f8 b4 bc
       -0.019390149 0.027591374 0.0050677774 -0.02209103
000020 86 a0 65 3c f4 e5 01 3c a9 c9 3e bc 01 28 c5 bc
       0.014015323 0.00792836 -0.011644759 -0.024066927
000030 c1 98 86 bb d3 2e da 3b dd 4a a1 3c 7a 59 c6 3c
       -0.004107565 0.006658414 0.019689018 0.024212588
000040 4f 5f 45 3c 1c 59 5c bc e8 c6 65 bc 6e 37 08 3c
       0.012046649 -0.01344898 -0.014024474 0.008313997
000050 78 bb ba bc 6a c6 02 3d 14 f8 88 bc 5e c4 63 3b
       -0.02279447 0.031927504 -0.016719855 0.0034754495
000060 c3 6e df bc 20 99 8e bc fd 82 a0 3c 70 f1 44 3c
       -0.027274495 -0.017407 0.01959371 0.012020454
000070 9b 97 ce 3c f1 63 9e 3c 11 22 38 3c d7 cc 00 3b
       0.025218775 0.019334765 0.011238591 0.0019653344
000080 5c ec 95 3c 5e c9 d7 3c 6b 3d ba bc 26 e0 68 bc
       0.018301181 0.026341137 -0.022734364 -0.014213597
000090 a1 54 95 bb 4e 29 ac bc bd 72 37 3c d0 2b ac 3b
       -0.0045572077 -0.02101579 0.011196789 0.0052542463
0000a0 8c 62 24 3d eb 61 56 bc 5c e7 fb 3a 34 be 37 bc
       0.040133044 -0.013084869 0.0019218731 -0.011214782
0000b0 82 71 0f bc ca 52 2a 3c ca cd 92 bc 2c 4c c0 3c
       -0.00875509 0.010395715 -0.017920393 0.023473822
0000c0 9c 10 74 bc 56 b3 76 3c df 12 90 bc 3a 3b 08 bc
       -0.014896538 0.015057405 -0.017587123 -0.008314902
0000d0 f8 13 b7 3c 31 69 c6 3c ac 00 84 3c 07 6b c8 bc
       0.022348389 0.024220081 0.016113602 -0.024465097
0000e0 8c 13 dc bc 5d b2 f3 3c 16 c3 68 3c 67 29 08 3c
       -0.02686479 0.029748136 0.014206668 0.008310652
0000f0 4b 4a 42 bc b3 90 53 bc 62 46 fa bb 90 c1 c7 3c
       -0.011858533 -0.012912917 -0.007637785 0.02438429
000100 66 f5 dd bc ae eb 6d 3c 7a 46 55 3c 08 6e a2 ba
       -0.027094554 0.014521522 0.013017291 -0.0012392411
000110 7a 08 8e 3c d3 7d 21 3c 72 f9 90 3c 20 fa b1 bb
       0.017338026 0.009856659 0.01769707 -0.0054314286
000120 e4 7b d6 bc 73 5f 06 3d 67 91 96 3c 74 4b 6b 3c
       -0.026182123 0.03280587 0.01837988 0.014361251
000130 d5 31 41 bd 6b be cc 3b ef d4 c9 3c db e6 be 3c
       -0.047166664 0.0062482855 0.024637667 0.02330344
000140 ef 50 e4 3c e5 37 c1 3c c2 9f 80 3c 30 b2 bd 3c
       0.027870623 0.023586223 0.015701178 0.023156255
000150 51 87 c1 3b 93 9e da 3c 63 94 41 bc aa 1f bc 3b
       0.0059060236 0.026686942 -0.011815163 0.0057410793
000160 f4 ec b7 3b 55 c3 a6 bc 0d bd 53 bc 70 ff c0 3b
       0.005612964 -0.020356813 -0.012923491 0.0058898255
000170 ee 47 e8 3c 0f 58 91 3c 4f 4d 42 3a 66 9f 99 3b
       0.028354611 0.017742185 0.00074120326 0.004688191
000180 c3 49 90 b9 c6 5d bb 3c 85 ad 3c bc fe ec 28 ba
       -0.00027520777 0.022871863 -0.01151598 -0.0006444006
000190 30 59 89 3b 5f d2 ae 3c 60 6f 93 bc 38 47 21 3c
       0.00419154 0.021340547 -0.017997444 0.00984364
0001a0 d7 0a b3 3c 12 f2 a6 bc 2c db 42 bc f8 7a 93 3c
       0.021855755 -0.0203791 -0.011893075 0.018002972
0001b0 a6 65 e1 3c 2d bc 80 bb 03 0c 1e 3c 09 6b bb 3c
       0.02751429 -0.0039286823 0.0096464185 0.022878187
0001c0 90 2c cc bc 24 81 07 3d b5 f5 4c 3c f7 50 09 bc
       -0.024923593 0.033082142 0.012509753 -0.00838112
0001d0 b4 08 2c 3d 5c e8 96 39 7b c4 37 bc d7 ae 59 3b
       0.042000487 0.0002878335 -0.011216278 0.0033215785
0001e0 5e a0 01 bc 9f f1 1b 3d 7d 58 e7 3a a9 16 7d 3c
       -0.00791177 0.038072225 0.0017650273 0.015447297
0001f0 c2 80 94 b9 a4 0d c2 3c b4 d7 32 bc 94 fc 34 bc
       -0.00028324692 0.023688145 -0.010915685 -0.011046547
000200 a8 26 b0 bc 59 f3 5e bd b8 42 27 3d c8 87 81 3d
       -0.021502808 -0.054431293 0.040835112 0.06324726
000210 51 f8 72 bd 0d d1 26 3d 47 89 11 bd fb 39 54 bd
       -0.059318844 0.04072671 -0.03553131 -0.051813107
000220 45 10 71 3d 50 58 72 bd e9 57 1f bd 7a c0 76 bd
       0.058853406 -0.059166253 -0.038902197 -0.060242154
000230 c0 f6 58 bd 14 8b 1d 3d 99 35 e6 3c 32 b0 1e 3d
       -0.052969694 0.038462713 0.02810173 0.03874225
000240 78 61 13 3d 48 56 4a bd 10 6f 5c bd 26 dd 32 3d
       0.035981625 -0.04939869 -0.053816855 0.043667935
000250 36 d6 34 bd 4d 00 ef 3c 6e b5 09 bd 9b c7 24 3d
       -0.0441496 0.029174948 -0.03362029 0.04022942
000260 5a a1 6f bd ef 2c 8d bd 14 23 0b 3d 4c 64 32 3d
       -0.058503486 -0.06893336 0.033969 0.04355268
000270 a7 5c 07 3d 1a 3b e1 bb 9d 6d 28 3d 8d 4e 54 3c
       0.033047345 -0.0068735005 0.04112016 0.012958181
000280 c4 f5 4f 3d 24 73 e2 3c 5f 4a 8a bc f7 9e 30 bd
       0.05077149 0.027642794 -0.016881166 -0.04312035
000290 33 6d 37 bd 78 7b 49 bd 2c 2d 18 3d 03 6f 38 3d
       -0.044781875 -0.049190015 0.037152454 0.045027744
0002a0 1b 7a 51 3d 35 37 30 3d 34 5b 41 bb eb 49 26 3d
       0.05114184 0.0430214 -0.0029503824 0.040597837
0002b0 69 0e 67 bd b2 92 09 3d 08 f6 66 bd a3 06 29 3d
       -0.056410227 0.033587165 -0.056386977 0.041266095
0002c0 ac 15 4a bd 73 a2 fa 3c 3b 8e 39 bd d6 74 46 bd
       -0.049337074 0.03059504 -0.045301657 -0.048451267
0002d0 bc 63 8c 3c a9 94 05 3d 5e 6b f8 3c 73 81 70 bd
       0.0171374 0.032612476 0.030324634 -0.058717202
0002e0 b6 bd a5 bd 59 98 74 3d 52 1a 53 3d 83 59 28 3d
       -0.08092825 0.059715603 0.051538773 0.04110099
0002f0 24 9f fc bc d6 d4 35 bd 8e 92 3c bd c3 63 0d 3d
       -0.030837603 -0.04439243 -0.046038203 0.03451897
000300 e8 ed 66 bd 7e ff 0e 3d 50 63 64 3d 4a cf 6a bd
       -0.05637923 0.034911625 0.055758774 -0.057326593
000310 fb 16 ff 3c 41 db ec 3c 2b 2f 2d 3d b7 9a 17 bd
       0.031138888 0.028913142 0.04228131 -0.037012782
000320 91 e8 40 bd 74 72 16 3d eb 82 09 3d 3a c9 07 3d
       -0.047096793 0.036730245 0.03357212 0.03315089
000330 58 fd 06 bd 9e 13 03 3d 77 2f fc 3c 35 20 04 3d
       -0.03295645 0.03200113 0.030784352 0.032257278
000340 6c 04 cb 3c 58 73 42 3d 1d 29 de 3c a7 ba 31 3d
       0.024782382 0.04747328 0.027119214 0.043390896
000350 00 b8 4e 3d 5e af 22 3d 53 f5 5d bd ea 1c 33 3d
       0.050468445 0.039718024 -0.054189038 0.043728746
000360 5c 65 3b bd df 61 66 bd 93 20 53 bd b5 74 36 bd
       -0.04575096 -0.05624568 -0.051544737 -0.044544894
000370 20 ef 1d 3d fd 1b 0a 3d 18 f0 32 3d 01 15 c5 3c
       0.038558125 0.033718098 0.043686002 0.024057867
000380 6c 35 16 bd 3b b8 00 3d 18 94 6f bd b7 e2 09 3d
       -0.03667204 0.031425696 -0.058490843 0.033663478
000390 f9 c9 29 3d 53 e3 f6 3c 21 81 54 bd fd a4 e0 3c
       0.04145238 0.030137694 -0.05188096 0.027422423
0003a0 b9 ab f7 3c cf bb 53 bd 78 4b 58 bd a0 80 03 3d
       0.03023325 -0.05169278 -0.052806348 0.03210509
0003b0 ad 2c 0f 3d c9 f3 60 bd 33 1a ad 3c 0d 53 1a 3d
       0.034954716 -0.05491999 0.021130657 0.03767686
0003c0 54 68 15 bd 8e 7e 05 3d 30 32 0b 3d 1c 92 39 bd
       -0.03647645 0.032591395 0.03398341 -0.045305356
0003d0 24 e5 c1 3c 71 4d e0 3c c6 0e 5e bd f7 31 20 3d
       0.023668833 0.027380677 -0.054213308 0.03911015
0003e0 92 91 7c bd 5f b6 c7 3c 9b 43 27 bd 17 5e 06 3d
       -0.061662264 0.024378954 -0.040835958 0.032804575
0003f0 97 b1 45 bd 7e 1e 10 3d b3 0b 64 bd 4c 57 94 bc
       -0.048265066 0.03518533 -0.05567522 -0.018108033

action_model._discrete_distribution.branches.0.bias f4 [4]
000000 60 d1 62 3c 49 55 45 3d dd d0 c6 3b 17 14 36 bd
       0.013843864 0.048177037 0.006067379 -0.044452753
