results/tetris3/TetrisAgent/checkpoint.pt (torch, 349301 bytes, 11 tensors)

network_body._body_endoder.seq_layers.0.weight f4 [128, 200]
000000 1f 31 c8 3b dd d6 ba 3d 82 82 d9 3c e9 65 71 3d
       0.0061093713 0.09123013 0.026551489 0.05893508
000010 14 45 18 3c 84 53 04 be 56 05 cc 3c 7e 3d 78 bd
       0.009293813 -0.12922484 0.024904888 -0.06060552
000020 54 07 31 bd c4 ed 35 3e 70 96 46 3b f0 49 26 bd
       -0.04321988 0.17766482 0.003030207 -0.040597856
000030 d8 93 79 bd b0 75 83 bd 9b e7 b3 bd 54 e8 27 bc
       -0.06093201 -0.064189315 -0.087844096 -0.010248262
000040 af da 45 3e ab 21 f2 3d b9 16 93 bb 04 25 2d bd
       0.19321702 0.11822828 -0.0044887927 -0.04227163
000050 d2 25 f4 3d e2 69 d2 bc e6 b1 e3 3d ab 12 e6 3d
       0.11921276 -0.025685254 0.11117916 0.112340294
000060 2a 7a b6 bd 10 c3 a6 3c 83 e2 15 bd 88 4f 7d 3d
       -0.0891002 0.020356685 -0.03659297 0.061843425
000070 66 6f de 3d 1f 4d 13 3d 60 5d a2 3c 45 c2 03 bd
       0.10861091 0.03596222 0.019819915 -0.03216769
000080 df 1b c4 3c c8 b6 16 bd 64 00 67 3d ae 07 df 3a
       0.023939071 -0.036795408 0.056396857 0.0017015839
000090 aa 10 0b 3c f8 25 86 3c ae 1e 7d 3c b9 2a ac bc
       0.00848786 0.016375527 0.015449209 -0.021016465
0000a0 95 88 af bd f1 a5 40 bd cf 2c d7 bc 0e 87 27 bd
       -0.08570973 -0.047033254 -0.026266484 -0.040900283
0000b0 49 b4 96 bc a2 e6 2b 3d 98 79 a3 3d 8d f4 e0 bd
       -0.018396514 0.041967995 0.079821765 -0.10984144
0000c0 f2 d8 23 3e f5 f5 a0 3d 19 89 db bc 9e 8f 7a 3b
       0.16000727 0.078594126 -0.026798772 0.0038232575
0000d0 e2 8a 30 bc 98 00 a2 bd 8d ae 8e bb 50 1c e5 bd
       -0.0107753 -0.079102695 -0.004354304 -0.11187041
0000e0 09 bc 4d bd 93 57 92 3d 57 d1 a7 bd 92 9d 4b 3c
       -0.050228152 0.0714561 -0.08194225 0.012427704
0000f0 83 f1 ef bc b8 9a 25 3e c2 4d 12 3d 7c dd 8d 3d
       -0.029289966 0.16172302 0.035718687 0.069270104
000100 b8 c1 61 bd bc ea c0 bc f5 3a c6 bd a2 ae bd bd
       -0.055116385 -0.02354943 -0.09679214 -0.09261824
000110 73 60 16 bd 6b f0 5e bb 4d 1a 85 bc e5 7f c2 3c
       -0.036713075 -0.0034017812 -0.016247893 0.023742625
000120 1c a4 d4 3c 8c 53 a5 3d ab ba de bd e2 04 fd 3c
       0.02595716 0.08072576 -0.10875448 0.030886117
000130 b4 a2 11 3d cb 00 94 bd fb 62 09 bd e6 9d 02 bd
       0.035555556 -0.07226714 -0.03354166 -0.031888865
000140 2f 02 9c 3d 4c f5 2c 3d 5a 90 d1 3c 02 9a 41 3d
       0.07617604 0.04222612 0.025581528 0.047266014
000150 da 40 aa 3d 81 c8 28 3d d1 b8 e8 bc bf 1e b7 3d
       0.08313151 0.04120684 -0.02840844 0.08941411
000160 e0 4f 4b 3d 72 69 8e bd c0 39 9f bc 46 72 7f 3d
       0.04963672 -0.06953706 -0.019436717 0.06236484
000170 c7 c7 f3 3b 39 c4 93 bc 35 ab d3 3c 59 59 79 bd
       0.007439587 -0.018037902 0.025838474 -0.060876224
000180 e8 9f 88 bd 86 68 a4 3d 4c 8a 1c bb 2d 6a 20 3c
       -0.06671125 0.08027749 -0.0023886142 0.009790939
000190 2c fc 02 bd 4f 10 8a bd a3 22 0a be d7 5f d3 bc
       -0.03197877 -0.06741392 -0.13489775 -0.025802536
0001a0 d9 77 78 3d e2 68 d8 3c ef 43 ed 3c 14 0f e6 3c
       0.06066117 0.0264172 0.028963057 0.028083362
0001b0 19 99 04 bd fc d6 6a 3b fc 84 6e bd a4 af 6a 3d
       -0.032372568 0.0035833707 -0.058232293 0.05729641
0001c0 41 05 7a 3c fd 03 8d bd 32 69 39 3b 9f 9d 55 bd
       0.015260042 -0.06885526 0.002829146 -0.052152272
0001d0 88 60 ca bc 2c e3 12 bd e3 5e 34 bc 91 fc 7e 3d
       -0.024704233 -0.03586118 -0.011008951 0.062252585
0001e0 64 f9 8e bc e7 4b b7 bc db a6 bf 3c 98 3a 84 bd
       -0.017452903 -0.02237506 0.023394993 -0.06456488
0001f0 ba 1a a8 bc 2e 57 b0 3d 0d 04 a6 38 64 3e a4 bd
       -0.020520557 0.08610378 7.916251e-05 -0.080197126
000200 14 67 c7 3b 38 2e 2e 3d 65 44 2f bc 2b 58 38 3d
       0.006085286 0.042524546 -0.010697459 0.04500596
000210 84 18 fb bd 7d 50 75 bc c8 55 24 bd a7 b8 56 3d
       -0.12260535 -0.014972803 -0.04012087 0.052422192
000220 ef 47 fc bd 03 9c cf bc 4d 01 02 3c a9 10 fc 3d
       -0.12318408 -0.025342947 0.00793488 0.12307865
000230 75 40 8b 3d ca d2 e4 bd a6 17 e8 bd 6b b3 33 3d
       0.067994036 -0.11173017 -0.113326356 0.04387228
000240 f4 a3 6b bd 40 e2 f5 bc 82 5d 04 bd 46 0e 85 3d
       -0.057529405 -0.030015111 -0.03231574 0.06496863
000250 c4 67 94 bd 2b 4f 82 bd 52 f4 03 bd e7 79 0c 3d
       -0.07246354 -0.06362756 -0.032215424 0.034295943
000260 29 45 d2 bd b4 2d a5 ba 68 0f 36 3d 42 54 61 3d
       -0.102670975 -0.0012602122 0.044448286 0.055011995
000270 24 66 8a bc 8d f7 05 be 9c 09 f1 b9 19 43 e0 3d
       -0.016894408 -0.13082714 -0.00045974262 0.10950298
000280 76 2b 79 3c 68 9a a5 bd 99 0d f6 3d fa 92 9e bc
       0.015208116 -0.08086091 0.12014312 -0.019357193
000290 5d ce 88 3d 46 05 09 3e bd 76 3b bb 40 d6 36 be
       0.06679986 0.13380918 -0.002860471 -0.17855167
0002a0 f0 75 97 bc 82 01 a9 3c d6 db b5 3d 93 0e 18 bb
       -0.018488854 0.020630602 0.08879821 -0.0023202046
0002b0 2c 5e af 3d f8 b3 a5 3d 83 24 5c bd 1e c6 37 3c
       0.08562884 0.08090967 -0.053745758 0.011216668
0002c0 38 ed 16 bd 2a f8 5d 3c 07 bf d7 3c 42 88 47 bb
       -0.036847323 0.013547936 0.026336206 -0.0030446206
0002d0 7e 33 1c bd f3 c4 97 ba 7c 9f 1a 3d e1 95 92 bd
       -0.038135044 -0.0011579081 0.037749752 -0.071574934
0002e0 ae c7 9e 3d fe 99 d8 3d 7e 72 12 bd 67 79 56 be
       0.0775293 0.10576247 -0.03575372 -0.20944749
0002f0 fc dd 06 bd 8a a9 8d 3d cd 93 26 bd 5d d7 c0 bd
       -0.032926545 0.06917103 -0.040668298 -0.09416077
000300 a0 7f 14 bd a9 ee e9 3d ca 58 8f 3d e2 7b 3c 3c
       -0.036254525 0.11422474 0.06999357 0.011504145
000310 b7 67 cd 3c ed 32 d7 bc a1 08 33 bd 53 9e c3 3d
       0.02507387 -0.0262694 -0.0437094 0.09551682
000320 93 5b 17 3e ef 07 bb 3a f5 37 85 bd 19 29 e0 bb
       0.14781027 0.0014269332 -0.065048136 -0.0068408367
000330 d0 3a 97 3d 7d 85 38 be 19 0b 0f bd 12 55 20 bd
       0.073842645 -0.18019672 -0.034922693 -0.03914363
000340 1f 0c 04 bd 3b eb 70 3d e1 c2 a5 3d a3 d7 d8 3c
       -0.032238122 0.058818083 0.08093811 0.026470011
000350 ee c4 36 be 05 5e 3b bd c6 08 52 3c 52 c6 b3 3d
       -0.1784856 -0.04574396 0.012819475 0.08778061
000360 51 7f 49 bd ce ea de 3c 73 1e ca 3d f3 49 a5 bb
       -0.049193684 0.027211573 0.09869089 -0.005044216
000370 23 9f 20 3c 4e f9 28 3e 00 66 43 bd 32 0c 7b 3d
       0.009803566 0.16501352 -0.047704697 0.061290927
000380 57 34 88 bd 13 bd 24 3e bf 5a fd bc cf 8e 2a bb
       -0.06650608 0.16087751 -0.03092706 -0.0026025062
000390 7a b5 07 3e ab ee fe 3c 9d fb 98 3d 56 4a 72 3c
       0.13252822 0.031119665 0.074698664 0.014788231
0003a0 fb 87 18 3b c5 5c 5d bc 22 7e 41 3e ae fb 4c 3d
       0.002327441 -0.0135108875 0.18895772 0.050044708
0003b0 fe 0a 0f 3e 12 be 14 3d 13 fc c3 3c cf dc 35 3e
       0.13969037 0.036314078 0.02392391 0.17760013
0003c0 20 c8 f9 3b 45 1d 88 bd cd 30 6a bd 45 42 a3 bd
       0.0076227337 -0.06646208 -0.057175446 -0.07971624
0003d0 68 d2 e0 3c e1 a6 8b bb da d8 eb bc d6 a7 65 bc
       0.02744408 -0.004261837 -0.028789926 -0.014017066
0003e0 0d c8 f9 bc 02 1a 19 3d 79 5c 15 3c 25 c5 84 bd
       -0.0304909 0.03737832 0.0091162855 -0.06482915
0003f0 70 92 97 3c d1 2c 4d bd 9b 83 ce bd 0a 65 83 bd
       0.018502444 -0.05009157 -0.100836955 -0.06415756

network_body._body_endoder.seq_layers.0.bias f4 [128]
000000 00 00 00 00 00 00 00 00 00 00 00 00 00 00 00 00
       0.0 0.0 0.0 0.0
000010 00 00 00 00 00 00 00 00 00 00 00 00 00 00 00 00
       0.0 0.0 0.0 0.0
000020 00 00 00 00 00 00 00 00 00 00 00 00 00 00 00 00
       0.0 0.0 0.0 0.0
000030 00 00 00 00 00 00 00 00 00 00 00 00 00 00 00 00
       0.0 0.0 0.0 0.0
000040 00 00 00 00 00 00 00 00 00 00 00 00 00 00 00 00
       0.0 0.0 0.0 0.0
000050 00 00 00 00 00 00 00 00 00 00 00 00 00 00 00 00
       0.0 0.0 0.0 0.0
000060 00 00 00 00 00 00 00 00 00 00 00 00 00 00 00 00
       0.0 0.0 0.0 0.0
000070 00 00 00 00 00 00 00 00 00 00 00 00 00 00 00 00
       0.0 0.0 0.0 0.0
000080 00 00 00 00 00 00 00 00 00 00 00 00 00 00 00 00
       0.0 0.0 0.0 0.0
000090 00 00 00 00 00 00 00 00 00 00 00 00 00 00 00 00
       0.0 0.0 0.0 0.0
0000a0 00 00 00 00 00 00 00 00 00 00 00 00 00 00 00 00
       0.0 0.0 0.0 0.0
0000b0 00 00 00 00 00 00 00 00 00 00 00 00 00 00 00 00
       0.0 0.0 0.0 0.0
0000c0 00 00 00 00 00 00 00 00 00 00 00 00 00 00 00 00
       0.0 0.0 0.0 0.0
0000d0 00 00 00 00 00 00 00 00 00 00 00 00 00 00 00 00
       0.0 0.0 0.0 0.0
0000e0 00 00 00 00 00 00 00 00 00 00 00 00 00 00 00 00
       0.0 0.0 0.0 0.0
0000f0 00 00 00 00 00 00 00 00 00 00 00 00 00 00 00 00
       0.0 0.0 0.0 0.0
000100 00 00 00 00 00 00 00 00 00 00 00 00 00 00 00 00
       0.0 0.0 0.0 0.0
000110 00 00 00 00 00 00 00 00 00 00 00 00 00 00 00 00
       0.0 0.0 0.0 0.0
000120 00 00 00 00 00 00 00 00 00 00 00 00 00 00 00 00
       0.0 0.0 0.0 0.0
000130 00 00 00 00 00 00 00 00 00 00 00 00 00 00 00 00
       0.0 0.0 0.0 0.0
000140 00 00 00 00 00 00 00 00 00 00 00 00 00 00 00 00
       0.0 0.0 0.0 0.0
000150 00 00 00 00 00 00 00 00 00 00 00 00 00 00 00 00
       0.0 0.0 0.0 0.0
000160 00 00 00 00 00 00 00 00 00 00 00 00 00 00 00 00
       0.0 0.0 0.0 0.0
000170 00 00 00 00 00 00 00 00 00 00 00 00 00 00 00 00
       0.0 0.0 0.0 0.0
000180 00 00 00 00 00 00 00 00 00 00 00 00 00 00 00 00
       0.0 0.0 0.0 0.0
000190 00 00 00 00 00 00 00 00 00 00 00 00 00 00 00 00
       0.0 0.0 0.0 0.0
0001a0 00 00 00 00 00 00 00 00 00 00 00 00 00 00 00 00
       0.0 0.0 0.0 0.0
0001b0 00 00 00 00 00 00 00 00 00 00 00 00 00 00 00 00
       0.0 0.0 0.0 0.0
0001c0 00 00 00 00 00 00 00 00 00 00 00 00 00 00 00 00
       0.0 0.0 0.0 0.0
0001d0 00 00 00 00 00 00 00 00 00 00 00 00 00 00 00 00
       0.0 0.0 0.0 0.0
0001e0 00 00 00 00 00 00 00 00 00 00 00 00 00 00 00 00
       0.0 0.0 0.0 0.0
0001f0 00 00 00 00 00 00 00 00 00 00 00 00 00 00 00 00
       0.0 0.0 0.0 0.0

network_body._body_endoder.seq_layers.2.weight f4 [128, 128]
000000 42 33 05 3e 62 db d6 3d b6 19 72 bd 73 64 e8 bd
       0.13007835 0.10491063 -0.05910655 -0.11347284
000010 d6 b7 78 bc 4a dc 23 bd 32 d9 34 bd c0 7e d3 3d
       -0.015180549 -0.040005006 -0.044152446 0.1032691
000020 3d 1d 7d 3a e1 9d 9e 3d bb 32 74 bd 8e 15 f7 3c
       0.0009655541 0.07744957 -0.059618693 0.030161645
000030 ac 8e 85 3c 4f 8b d2 bd 70 48 1b be 57 20 cc bd
       0.016303383 -0.10280477 -0.15164351 -0.09967106
000040 4d 8f df bd b1 30 e3 bd 9d c7 6d bc 02 92 19 be
       -0.10916004 -0.110932715 -0.014512924 -0.14997104
000050 e5 19 ef bc 46 56 7e 3b f5 4d af bd 94 8b 0e 3d
       -0.029187152 0.0038808747 -0.08559791 0.03480108
000060 ba 27 d5 3d da 25 d8 bd 91 38 b5 bc 23 eb ec 3d
       0.10407968 -0.105540946 -0.0221217 0.11568286
000070 0e 97 5d 3e a4 2e 5f 3b b8 31 bc 3d fe 1d a1 3d
       0.21639654 0.00340549 0.091891706 0.07867049
000080 25 6f 06 3e 4f 7c a3 3c 3e 1c 7d 3c 6f 36 85 3d
       0.13128336 0.019956736 0.015448628 0.06504523
000090 ca bf e7 3d 0d dd 86 bd be f4 bb 3d 8e fe e0 bd
       0.11315878 -0.06585131 0.0917754 -0.109860525
0000a0 42 99 b1 bd 00 c3 c0 3d 68 2c c0 3c 7c c5 aa bd
       -0.0867181 0.09412193 0.023458675 -0.083384484
0000b0 4a 36 94 bd 5d 8a 76 bd 31 ed df 3b 37 d5 5e 3c
       -0.07236917 -0.060190547 0.0068336953 0.013600639
0000c0 a8 39 39 bd d3 c8 b8 bd af 58 a7 bc 45 de 4a be
       -0.045221 -0.09022679 -0.02042803 -0.19811352
0000d0 98 bf 0c be fd 77 20 bd 1c 0a b9 3d 2c 25 eb bd
       -0.13744962 -0.03917693 0.09035131 -0.11481699
0000e0 48 fc b0 bd 71 17 07 3d af 76 b1 3d 3f 9a d2 bb
       -0.08641869 0.03298134 0.08665215 -0.006427079
0000f0 62 29 f9 3c 22 b8 ec bd ec f8 19 bd 5c ba f0 bd
       0.03041524 -0.11558558 -0.037590906 -0.11754295
000100 dc f6 d3 bd 5f 54 00 be 1c ba f8 bd 68 4b 8a 3d
       -0.10349819 -0.12532185 -0.121448725 0.06752664
000110 8f 8e ac bc 71 4a c2 bc c0 2d eb bd 89 44 33 3d
       -0.021064071 -0.023717137 -0.114833355 0.043766532
000120 61 60 63 3e 26 94 05 3c 35 2e 65 ba 34 73 e5 bd
       0.22204734 0.008152997 -0.0008742542 -0.11203614
000130 ac af 36 bc 71 2c 0d bd 23 fa 15 3e e2 c7 e8 3d
       -0.011150282 -0.03446621 0.14646201 0.113662496
000140 24 97 92 be f1 eb c6 3b c1 d4 12 bd 30 c0 f0 bd
       -0.28630936 0.006070607 -0.03584743 -0.11755407
000150 dc d1 c9 bb 35 4c 1e 3e b0 72 66 bd 2d 5d b0 bd
       -0.0061590504 0.15458758 -0.05626172 -0.08611522
000160 74 9d 99 bb 21 5c bc bd 4e e2 0b bc bf 62 ba 3d
       -0.0046879593 -0.0919726 -0.008537842 0.091008656
000170 57 7e cf bc a3 20 48 ba 19 d6 39 be d5 3b e1 bd
       -0.025328798 -0.0007634258 -0.18148078 -0.1099774
000180 8d c6 67 bd ab 32 26 3e c4 f6 eb bc 4b e0 97 bd
       -0.056585837 0.16230266 -0.02880419 -0.07415827
000190 95 aa 07 3d f5 7b 53 bd 64 b9 b8 bd e1 24 b3 bd
       0.033121664 -0.051631887 -0.090197355 -0.087472685
0001a0 be 7e 1e 3e ab 07 61 bd 34 a9 cf 3d 7d 3a 34 be
       0.15478036 -0.054938953 0.10139695 -0.17600437
0001b0 d0 64 31 bd 77 d9 17 3e ea 41 01 bd 22 59 cd 3d
       -0.043309033 0.1482905 -0.031557 0.10026766
0001c0 e7 c9 56 3d f1 ba e6 3d 04 3d e2 bd 1c 4d 05 bd
       0.052438643 0.11266125 -0.11046794 -0.03254424
0001d0 c1 fa b8 3d 3f 8d 06 be a5 63 19 3d eb 12 32 bd
       0.090322025 -0.13139819 0.037448544 -0.043475073
0001e0 9b 99 7d 3c 73 fb 63 3d 80 f0 28 3c 4c 9c f5 bd
       0.015478517 0.055659723 0.010311246 -0.11992702
0001f0 a3 91 50 bc 0b eb 8a bd 7f 53 7d 3d 39 ef 78 bd
       -0.012730035 -0.06783112 0.061847206 -0.060775016
000200 ea 8f 82 bd 55 0f be bd a6 f3 27 be bc f9 5c bb
       -0.06375106 -0.09280268 -0.16401538 -0.003371819
000210 ec a2 92 bd 96 a9 08 3e c8 48 29 be 0c 37 aa 3c
       -0.07159981 0.13345942 -0.1653167 0.020778202
000220 4d 82 10 bd 3e ca 81 bd 13 5d 4f 3d 40 2a 4f 3c
       -0.035280515 -0.06337403 0.050625872 0.0126443505
000230 15 43 5e 3c cb 18 4b bd 7d de 0d 3e 08 9d 0c 3d
       0.013565798 -0.04958419 0.13854404 0.034329444
000240 20 43 f2 3d 4c d6 29 3d fc fb a0 bd 7b 96 9c 3c
       0.11829209 0.041464135 -0.07860562 0.019114723
000250 74 40 00 3d cf 1c 72 3d d6 c5 70 bd d2 12 92 3d
       0.031311467 0.059109505 -0.05878242 0.07132496
000260 14 e6 91 bd ee c6 d2 bd b8 02 a1 bd 35 c8 18 bd
       -0.07123962 -0.10291849 -0.07861847 -0.037300307
000270 23 20 9b ba 4b 68 12 3d c9 31 8a 3d 7a 41 55 be
       -0.0011835139 0.035743993 0.06747777 -0.20825759
000280 ec 22 ec 3c 77 0b 4c bd 87 fb 30 bd f3 c0 01 3e
       0.028825246 -0.04981562 -0.043208625 0.1267126
000290 96 aa 77 bd 5b 90 89 3d fb 31 4e be 01 bb f8 3d
       -0.060465418 0.06716987 -0.20136254 0.12145043
0002a0 1a 7d 74 3d 36 87 c1 3d 6b 01 49 bd 5d 40 2d 3d
       0.05968962 0.094496176 -0.049073618 0.04229771
0002b0 b7 a2 d6 3d d9 25 0e be d9 d7 20 bc 42 62 6a bc
       0.10480254 -0.13881625 -0.009817087 -0.014305653
0002c0 38 62 41 3d d1 a4 3b 3d b9 fd 0a 3b a4 33 6f 3c
       0.04721281 0.045811478 0.002120836 0.014599714
0002d0 7e 03 0c be d6 60 01 be dc 85 8b bc c3 01 e4 bc
       -0.13673207 -0.12634596 -0.017031603 -0.027832871
0002e0 bb 05 57 bd 27 fe 33 3c 74 c7 7f bb bf e4 86 bd
       -0.0524957 0.010985888 -0.0039028795 -0.065865986
0002f0 d0 f2 12 bd 11 df 06 bd 1b 00 e0 bd ff 11 96 bc
       -0.035876095 -0.032927576 -0.1093752 -0.018319128
000300 2b 88 80 3d 37 2b c2 bd c7 17 48 bd e1 f4 ad bd
       0.06275972 -0.09480899 -0.0488508 -0.084939726
000310 7c ca 6d 3c 30 95 46 3c 97 37 8e bd 37 45 c0 3d
       0.014513608 0.01212053 -0.06944197 0.09388202
000320 70 c2 00 be 87 81 84 bc 46 66 c2 3c 39 76 03 bd
       -0.12574172 -0.016175045 0.023730408 -0.032095168
000330 47 31 af bd ab 45 43 3c 48 bf b2 bb ce 08 dc 3c
       -0.08554321 0.011918466 -0.0054549314 0.026859667
000340 a9 c7 c4 3c 15 9e eb 3c c9 5c 78 3d 8d 13 b7 3d
       0.024020987 0.028761903 0.06063536 0.08939276
000350 05 43 07 be 65 ea af bd 72 e1 4a be a7 9b 88 3d
       -0.1320916 -0.08589629 -0.19812563 0.06670313
000360 bf de 76 3d 1b 36 24 3d 5b e9 5b bc 01 1d a8 3d
       0.06027102 0.04009066 -0.0134223355 0.08208657
000370 34 d5 4e bc f2 87 aa bc b9 4f c2 3c 0a 21 22 3e
       -0.012624074 -0.020816777 0.023719655 0.15832916
000380 1d 59 0f be ec 36 c9 3d ba 9f fd bd 9c c0 6e 3b
       -0.13998838 0.09824929 -0.12383981 0.0036430722
000390 c7 c8 e6 bd 59 84 20 be 2b 6d d4 bc 53 92 a0 bc
       -0.11268764 -0.15675487 -0.025930962 -0.019601023
0003a0 1b 49 84 bc 98 74 0f 3d 25 0c 79 bd 7f 93 24 bd
       -0.01614814 0.0350233 -0.060802598 -0.040179726
0003b0 cd d6 9e 3d 7d 81 03 bb 85 84 2b be e8 88 f1 bd
       0.07755814 -0.0020066195 -0.16749771 -0.11793691
0003c0 e5 1e 65 be 8c 11 f8 bd a0 df 3d bc e1 0f 4e bc
       -0.22375067 -0.12112722 -0.011588961 -0.012577028
0003d0 93 1f 94 bc 05 30 64 3d 30 76 67 bc 5f 53 33 3c
       -0.018081462 0.055709857 -0.014127299 0.01094517
0003e0 7b 02 00 3e d1 c9 58 bc 84 69 d0 3d 73 74 02 3e
       0.12500946 -0.0132317105 0.101763755 0.12739734
0003f0 34 41 27 3e 44 5a c5 bd 3f 60 8b 3d 1f da 0b be
       0.16333467 -0.096363574 0.06805467 -0.13657425

network_body._body_endoder.seq_layers.2.bias f4 [128]
000000 00 00 00 00 00 00 00 00 00 00 00 00 00 00 00 00
       0.0 0.0 0.0 0.0
000010 00 00 00 00 00 00 00 00 00 00 00 00 00 00 00 00
       0.0 0.0 0.0 0.0
000020 00 00 00 00 00 00 00 00 00 00 00 00 00 00 00 00
       0.0 0.0 0.0 0.0
000030 00 00 00 00 00 00 00 00 00 00 00 00 00 00 00 00
       0.0 0.0 0.0 0.0
000040 00 00 00 00 00 00 00 00 00 00 00 00 00 00 00 00
       0.0 0.0 0.0 0.0
000050 00 00 00 00 00 00 00 00 00 00 00 00 00 00 00 00
       0.0 0.0 0.0 0.0
000060 00 00 00 00 00 00 00 00 00 00 00 00 00 00 00 00
       0.0 0.0 0.0 0.0
000070 00 00 00 00 00 00 00 00 00 00 00 00 00 00 00 00
       0.0 0.0 0.0 0.0
000080 00 00 00 00 00 00 00 00 00 00 00 00 00 00 00 00
       0.0 0.0 0.0 0.0
000090 00 00 00 00 00 00 00 00 00 00 00 00 00 00 00 00
       0.0 0.0 0.0 0.0
0000a0 00 00 00 00 00 00 00 00 00 00 00 00 00 00 00 00
       0.0 0.0 0.0 0.0
0000b0 00 00 00 00 00 00 00 00 00 00 00 00 00 00 00 00
       0.0 0.0 0.0 0.0
0000c0 00 00 00 00 00 00 00 00 00 00 00 00 00 00 00 00
       0.0 0.0 0.0 0.0
0000d0 00 00 00 00 00 00 00 00 00 00 00 00 00 00 00 00
       0.0 0.0 0.0 0.0
0000e0 00 00 00 00 00 00 00 00 00 00 00 00 00 00 00 00
       0.0 0.0 0.0 0.0
0000f0 00 00 00 00 00 00 00 00 00 00 00 00 00 00 00 00
       0.0 0.0 0.0 0.0
000100 00 00 00 00 00 00 00 00 00 00 00 00 00 00 00 00
       0.0 0.0 0.0 0.0
000110 00 00 00 00 00 00 00 00 00 00 00 00 00 00 00 00
       0.0 0.0 0.0 0.0
000120 00 00 00 00 00 00 00 00 00 00 00 00 00 00 00 00
       0.0 0.0 0.0 0.0
000130 00 00 00 00 00 00 00 00 00 00 00 00 00 00 00 00
       0.0 0.0 0.0 0.0
000140 00 00 00 00 00 00 00 00 00 00 00 00 00 00 00 00
       0.0 0.0 0.0 0.0
000150 00 00 00 00 00 00 00 00 00 00 00 00 00 00 00 00
       0.0 0.0 0.0 0.0
000160 00 00 00 00 00 00 00 00 00 00 00 00 00 00 00 00
       0.0 0.0 0.0 0.0
000170 00 00 00 00 00 00 00 00 00 00 00 00 00 00 00 00
       0.0 0.0 0.0 0.0
000180 00 00 00 00 00 00 00 00 00 00 00 00 00 00 00 00
       0.0 0.0 0.0 0.0
000190 00 00 00 00 00 00 00 00 00 00 00 00 00 00 00 00
       0.0 0.0 0.0 0.0
0001a0 00 00 00 00 00 00 00 00 00 00 00 00 00 00 00 00
       0.0 0.0 0.0 0.0
0001b0 00 00 00 00 00 00 00 00 00 00 00 00 00 00 00 00
       0.0 0.0 0.0 0.0
0001c0 00 00 00 00 00 00 00 00 00 00 00 00 00 00 00 00
       0.0 0.0 0.0 0.0
0001d0 00 00 00 00 00 00 00 00 00 00 00 00 00 00 00 00
       0.0 0.0 0.0 0.0
0001e0 00 00 00 00 00 00 00 00 00 00 00 00 00 00 00 00
       0.0 0.0 0.0 0.0
0001f0 00 00 00 00 00 00 00 00 00 00 00 00 00 00 00 00
       0.0 0.0 0.0 0.0

action_model._discrete_distribution.branches.0.weight f4 [4, 128]
000000 fb 01 2d 3c 27 63 3a bc 6f 0a b8 bb e8 b3 98 3b
       0.010559554 -0.011376179 -0.005616478 0.0046601184
000010 d3 20 34 bb b7 b8 11 bc 50 2e 02 bc 67 47 a1 3b
       -0.0027485385 -0.008894137 -0.007945612 0.004921842
000020 9e 0c 40 bc df 3a 93 3c 57 e4 07 bb c7 bc fd bb
       -0.011721758 0.017972408 -0.0020735466 -0.0077434513
000030 b7 f7 53 3b 7d 9a 22 3b 74 94 8d bb db db b5 3b
       0.0032343694 0.002481132 -0.0043206755 0.0055498905
000040 9c 84 1f bb 53 0c b1 3c 2a ea 79 bc 73 7b 6f 3b
       -0.0024340516 0.021612322 -0.015253583 0.0036542087
000050 fe 73 c7 bb 53 1e b0 bb b5 e0 2f bb 50 48 bd 3b
       -0.0060868254 -0.0053747087 -0.0026836817 0.0057764426
000060 7d 05 a0 3b 3d 62 64 bb 5f f4 de 3b 17 20 07 3c
       0.0048834668 -0.0034848594 0.0068040336 0.008247397
000070 43 7e 30 bc a6 f2 37 bc 37 d6 30 3c 0f 12 ce 3c
       -0.010772291 -0.0112272855 0.01079326 0.025155095
000080 d5 b7 83 3c 48 00 5a 3c 74 c5 80 bb d7 93 46 3b
       0.016078869 0.013305731 -0.0039297882 0.0030300522
000090 93 98 04 3c 63 37 94 3b 85 94 30 bb 37 7f 67 3c
       0.008093017 0.004523204 -0.0026943993 0.0141294515
0000a0 ad a6 85 bb cf 31 e3 bc 04 18 0f bc dd be 55 3b
       -0.004078707 -0.027733712 -0.008733753 0.0032614984
0000b0 f2 5c 45 bc e5 22 55 3c 0a 71 32 bb 9f 14 04 bc
       -0.012046086 0.013008808 -0.002722802 -0.008061557
0000c0 e7 dc 2e 3c 03 9c 47 3c 9b ab b9 bb 55 c2 75 bc
       0.010672784 0.012183192 -0.005666209 -0.014999946
0000d0 db 2e 5b 3c 10 be 94 bb d7 84 98 bb 37 9a fa 3b
       0.01337787 -0.004539259 -0.0046545076 0.0076477784
0000e0 0a 6c a4 bb 4d 35 ea ba 5e f7 1e bc b0 5a e6 bb
       -0.005017762 -0.0017868668 -0.009702532 -0.0070298538
0000f0 96 d8 17 ba 25 4d 22 3b 87 1b 63 bc f8 d3 5c 3b
       -0.00057924667 0.002476522 -0.0138615435 0.003369568
000100 27 91 3e 3c 32 0d 6c bb b1 e4 a1 3b eb de 90 3a
       0.011631287 -0.0036018607 0.004940592 0.0011052763
000110 8d a0 19 3b 2f 18 1b 3a df bb 2b 3c 17 42 bb 3b
       0.0023441643 0.00059163844 0.010481804 0.0057146656
000120 8f 64 e9 bb c3 45 74 3a 82 a0 fa ba a4 39 9c 3c
       -0.007122583 0.00093182566 -0.0019121321 0.019070454
000130 ab 49 a4 3b a9 65 a5 3c 3d 4d e4 ba 73 9b d5 b7
       0.0050136647 0.020190077 -0.0017418038 -2.5463965e-05
000140 07 6f 28 bc 7f f3 6d 3c a5 c1 64 3b 6d 69 d6 ba
       -0.010280377 0.014523386 0.003490546 -0.0016358324
000150 aa 40 4b 3c db 25 00 3c 3b 2b 63 bb 0a be 4a bb
       0.012405554 0.007821525 -0.0034663219 -0.0030936026
000160 97 86 13 bc 3c 34 2c bc f0 da 63 3b 11 85 9c 3c
       -0.009004257 -0.0105105005 0.0034767948 0.01910642
000170 00 51 b4 bb 8d 1e ed 3a 63 ea 9f bb df eb 68 bc
       -0.00550282 0.001809077 -0.004880236 -0.014216392
000180 e2 98 ec ba b0 fd 86 38 da 61 de bb e5 61 d7 bb
       -0.0018050934 6.436871e-05 -0.006786567 -0.0065729492
000190 60 db 4d 3c d5 a9 a8 bb 8d 66 ce 3b 90 25 1e bb
       0.01256451 -0.0051471987 0.006298846 -0.0024131276
0001a0 17 59 97 ba f1 f8 b1 3b 2b c5 ab 3b 2f 2d b4 bb
       -0.0011546937 0.0054312875 0.00524201 -0.0054985504
0001b0 39 1f 30 ba d3 a1 62 b9 fd 7c f1 ba 32 da 85 ba
       -0.000671852 -0.00021613324 -0.001842409 -0.0010212122
0001c0 4f 2b 4a bc 7a b5 d1 3b f7 3b 5a bb f7 ab a5 3b
       -0.012339427 0.0063998075 -0.0033299902 0.0050559
0001d0 67 af c6 3a ae 2a a5 3a b4 5e 94 ba db 58 0c bc
       0.0015158475 0.001260122 -0.0011319728 -0.008566107
0001e0 20 f0 8c ba 1a bd fb 3b 59 3b 98 3c db ba 35 3b
       -0.0010752715 0.007682455 0.018582987 0.0027729783
0001f0 1e 86 ab bb 44 a5 94 bb 97 0d a3 bb 8b c9 12 3a
       -0.005234494 -0.0045363028 -0.0049759853 0.000559949
000200 5b 35 9e 3b 17 c0 58 3b 82 77 24 3c d0 05 7a 3c
       0.004828138 0.003307348 0.0100382585 0.015260175
000210 92 71 77 bb f1 84 c9 bb 67 d8 1c 3c 90 d4 65 bb
       -0.0037756902 -0.006149881 0.009573079 -0.0035069324
000220 a2 6d 7a bc d6 b3 0e bc 05 32 9e 3a fe ca 21 bc
       -0.015284928 -0.008709868 0.001206935 -0.009875057
000230 7d e4 24 3a 24 02 19 bc 03 1c 2b bc cd 82 17 3c
       0.0006290151 -0.009338889 -0.01044369 0.009247494
000240 08 44 64 bc f3 92 87 bc f3 4d c2 3a 4a 87 20 3b
       -0.013932236 -0.016549563 0.0014824256 0.00244947
000250 10 72 65 3b 92 73 82 3b cd 59 ac 3c 77 58 9c bc
       0.0035010614 0.003981062 0.021038914 -0.019085152
000260 0b e2 af ba 62 03 55 3c 00 42 43 bc 30 8f 07 bc
       -0.0013418806 0.013001295 -0.011917591 -0.008273885
000270 43 de 8a bb 1b a2 0d bc 6f 19 80 bc df 63 e3 3b
       -0.0042379214 -0.008644606 -0.015637128 0.006939396
000280 d7 78 e6 3b c3 87 2d bb 23 b7 b2 3b 0e 88 b4 bb
       0.007033448 -0.0026478625 0.0054539605 -0.005509383
000290 ed 2c b9 ba d3 38 f1 ba 43 ba 68 bb 73 64 ea ba
       -0.0014127769 -0.0018403776 -0.0035511411 -0.0017882719
0002a0 25 a6 96 bb b3 1c e6 3b 42 09 e9 b9 00 a8 95 3b
       -0.0045974427 0.007022464 -0.0004444812 0.0045671463
0002b0 3f 6b 93 3a d3 73 19 bb b7 4a 2d 3b d7 cf 01 ba
       0.0011247172 -0.0023414984 0.0026442239 -0.000495193
0002c0 85 61 31 3c 9a 9f 6b bb 48 9f fa ba 01 2f 22 ba
       0.010826473 -0.0035953284 -0.0019120956 -0.00061868137
0002d0 32 a4 dd 3b a3 24 c8 3b 3d 93 9b 3b ce 57 05 bb
       0.0067639584 0.006107883 0.004747777 -0.0020346525
0002e0 14 9c 28 bc f0 f6 04 3c b5 e7 f8 b8 2a b3 8f 3c
       -0.010291118 0.008115515 -0.0001186872 0.017541487
0002f0 27 22 b3 bb 4f 3d 95 3b 8f 2f 0b bc 74 be a3 3b
       -0.0054667178 0.0045544277 -0.008495226 0.004997069
000300 27 f3 24 3b cd 0d 2b 3c dd 9c 43 3b b3 d1 94 3b
       0.0025169344 0.010440302 0.0029848136 0.0045415997
000310 65 24 29 bc 08 29 fc bb 11 26 48 ba a7 1d ed 3a
       -0.010323619 -0.007695321 -0.0007635067 0.0018090502
000320 9e 7f 85 3a 42 39 32 3c 75 43 e9 3b 5f f6 55 bb
       0.0010185128 0.010877909 0.007118637 -0.003264807
000330 ac 6b b7 bb 1a e2 d2 3b 65 4c 8e ba 13 92 56 3b
       -0.0055975523 0.006435645 -0.0010856508 0.0032740876
000340 33 6c e9 3a 6b 66 d2 bb 4c 5d c6 bb 1e c9 22 3c
       0.0017808735 -0.0064209006 -0.0060536023 0.009935645
000350 bf c4 dc bb 00 19 ab 3c 25 50 70 3c 19 0a 11 3b
       -0.006737321 0.020885944 0.014667545 0.0022131263
000360 73 96 b1 bb 37 e5 64 bc 7d 63 ef 3b f1 af 4a 3b
       -0.0054195463 -0.013970665 0.007305561 0.0030927623
000370 91 d1 9a 3b cb 51 1b 3c a8 91 c3 bb e8 62 0a 3c
       0.0047246893 0.00947995 -0.0059682913 0.008446433
000380 cd bd 0c bc 74 11 44 3c d7 db 93 ba ef cf e9 3b
       -0.008590174 0.011967052 -0.0011280727 0.0071353833
000390 8b 4f b3 3b 1f 01 7c 3c ec 56 b7 3b a4 18 32 3a
       0.0054721287 0.015381127 0.0055950787 0.0006793833
0003a0 0a 96 41 3c 54 91 21 bb f7 51 ee 3a df ea da 3b
       0.011815557 -0.0024653273 0.0018182386 0.006680831
0003b0 4f 3e 01 3c 22 41 fa 39 fa c6 d8 3a bd 0b bf bb
       0.007888391 0.00047732244 0.0016538792 -0.0058302567
0003c0 70 87 e6 bb 6d 48 ac bc c7 f1 aa ba 38 7a 8e 3c
       -0.0070351884 -0.021030629 -0.0013042026 0.017392263
0003d0 06 2e b0 3b 4a 3e af 3b 8d 88 6f 3b c5 bb 48 3a
       0.00537658 0.0053480016 0.0036549896 0.00076573744
0003e0 49 06 86 bc 2f 8b 9c bb 85 53 78 bc 67 29 01 3c
       -0.016360419 -0.004777334 -0.015156631 0.007883406
0003f0 75 44 ff bb 52 a3 f3 3b 73 02 29 bc 34 46 93 bc
       -0.007790143 0.007435241 -0.010315525 -0.017977811

action_model._discrete_distribution.branches.0.bias f4 [4]
000000 00 00 00 00 00 00 00 00 00 00 00 00 00 00 00 00
       0.0 0.0 0.0 0.0

network_body._body_endoder.seq_layers.0.weight f4 [128, 200]
000000 98 ee a4 3d af c0 3b 3d 89 b7 b6 3d b4 c9 5d bd
       0.08053321 0.045838054 0.08921725 -0.054147437
000010 1a d1 f7 bc 81 5d e7 3d 2f 7a 11 be b6 2e 5d 3c
       -0.030251075 0.11297131 -0.14206766 0.013499906
000020 98 aa 3c bc 90 7c d9 ba b4 f2 d7 3d fe bb 45 3d
       -0.011515282 -0.0016592909 0.10544339 0.048274986
000030 15 b0 39 be 4b 66 31 3d d2 d7 08 3e 7b 43 0b bd
       -0.18133576 0.043310445 0.13363579 -0.0339999
000040 09 da ec bc 76 33 62 bb ae cd 53 3d 38 bd 36 be
       -0.028912561 -0.0034515536 0.051709823 -0.17845619
000050 db d7 b3 bc 19 4d 71 3d 7d f8 ca 3b f7 dd 84 3b
       -0.021953514 0.058911417 0.006194173 0.0040547806
000060 2a 95 86 bc 23 59 02 3e 64 98 cf bc 29 71 31 3e
       -0.016428549 0.12729315 -0.02534122 0.17328323
000070 27 8b 9d bd 6f aa 5c bd 26 18 b9 3c 7a bc 9c 3d
       -0.07692557 -0.053873476 0.022594523 0.076531366
000080 b5 b3 20 3e f5 1a d5 bd 95 5f 52 3d 84 99 2a b9
       0.15693553 -0.10405532 0.051360685 -0.00016269652
000090 0c 7d 38 3d 2e 04 0f be 7c e9 fe 3c f0 8a b6 3a
       0.04504113 -0.13966438 0.031117193 0.0013926905
0000a0 8b 85 0a 3d 98 78 e9 3b 31 02 23 3c 11 83 7b 3d
       0.033818763 0.0071249716 0.009949253 0.06140429
0000b0 e6 fc 6c bc f9 47 8f bd c4 b3 90 bc 20 25 9e 3d
       -0.014464593 -0.069961496 -0.017663844 0.07721925
0000c0 42 e7 30 3e 94 32 61 bc e7 b0 61 3b 28 e6 25 bd
       0.17275718 -0.013744969 0.0034437717 -0.040502697
0000d0 ef a2 30 3d a4 8a f3 3c d6 27 bd 3c 98 e1 de bc
       0.043124136 0.029729195 0.023090284 -0.02720718
0000e0 c9 30 ee 3c 47 78 d7 bd 8a 06 a2 3c 02 0e ec bd
       0.029075997 -0.10520988 0.019778509 -0.11526109
0000f0 cd 3b 94 bc cb 63 8b bc 4a 64 02 be ee 42 8f bc
       -0.018094921 -0.017015358 -0.1273357 -0.01748797
000100 8c 70 36 bc 30 63 5e bd 6f c3 6b 3d 21 f1 63 3d
       -0.011135232 -0.05429381 0.057559427 0.05564988
000110 d7 77 85 bd d7 ca f5 bd cb ed 0a bb c1 37 f9 bd
       -0.06516998 -0.12001579 -0.0021198865 -0.12168837
000120 67 64 3b 3d bc d5 1c 3e 3d 20 ba 3d 8c 62 d5 3b
       0.045750048 0.15315908 0.0908818 0.006511992
000130 05 3f 2e bd 18 94 f6 3b c9 02 8d 3b 11 24 8b bd
       -0.04254057 0.0075249784 0.0043033105 -0.067939885
000140 10 4a 41 bd b6 cc a7 3d 0b 6f 83 bc fc 76 1b bd
       -0.047189772 0.081933424 -0.01604416 -0.03795527
000150 13 9f de bd 94 1e 88 3c fb 94 4b bd 82 5a 8e 3b
       -0.10870185 0.016616143 -0.049702626 0.0043442855
000160 80 b4 0c bc de 7a 96 3d bf bb 9c 3d b4 e6 43 bd
       -0.008587956 0.07347654 0.07652997 -0.047827438
000170 2d 66 a0 3c 1d ed c7 3c 4d 2e ab bd e8 0b a5 bd
       0.019579971 0.024405057 -0.083584405 -0.080589116
000180 ba 93 d3 3d cf 6c d5 3c 3f 3e 2d 3d 61 56 81 3d
       0.10330911 0.02605286 0.04229569 0.063153036
000190 e9 00 0c 3c 6b b3 ab bd ad 51 77 bd 7d 34 18 bd
       0.008545139 -0.08383831 -0.060380626 -0.03715943
0001a0 46 08 94 bb 1d ab 03 be 2f 3a 54 bc c4 33 d1 bd
       -0.004517588 -0.12858243 -0.012953325 -0.10214952
0001b0 37 87 5f bc 5d 4b 01 bd 60 c3 43 bd 78 f1 a3 3d
       -0.013643078 -0.031566013 -0.047793746 0.08005041
0001c0 ff dc 61 bd e9 e2 17 3e 12 90 5b bd 94 ed 5f bb
       -0.0551424 0.14832653 -0.053604193 -0.0034168707
0001d0 e0 75 e6 3d 8a 0e 54 3d db dd 44 bd c8 e0 00 bd
       0.112529516 0.051771678 -0.04806314 -0.031464368
0001e0 6a 54 45 3d b8 54 a5 bc aa f5 01 be 92 f9 47 bd
       0.048176207 -0.020181999 -0.1269137 -0.048821993
0001f0 dc 14 f0 3b 7d 76 10 3d 5c 05 f0 bd 8f 5d 3e 3d
       0.0073267054 0.03526925 -0.11719772 0.046475943
000200 5c a0 07 bd 91 5f a0 bd 93 b7 95 bd 43 a2 5e 3d
       -0.033111915 -0.07830728 -0.07310405 0.054353964
000210 dc fa 2e 3a 83 3f 28 3d 69 8b 3d 3d 27 d5 89 3d
       0.0006674954 0.041076194 0.04627553 0.06730109
000220 2a f0 01 bd 29 66 9d bc f4 ea ae 3d 76 74 b4 3d
       -0.03172318 -0.019213753 0.085409075 0.08811276
000230 a3 ce 07 bd 3e 9c 85 3d 94 91 36 3c 16 eb 04 3d
       -0.03315605 0.065239415 0.011143107 0.032450758
000240 5c 95 b7 bc bd 7e e5 bd cf 42 77 ba 52 28 70 3d
       -0.022410087 -0.11205814 -0.00094322575 0.058632202
000250 37 57 f6 3b 1b 97 c3 bd 46 ee 04 bd eb ea 99 3d
       0.007517721 -0.095503055 -0.032453798 0.0751551
000260 9f 61 20 3d e1 ef 91 3d 42 78 59 bd 77 99 67 bd
       0.0391556 0.071258314 -0.053093202 -0.05654284
000270 eb ed 6c 3b 5e 08 92 bd 0a 8d 17 bd 91 12 4d bb
       0.0036152552 -0.07130502 -0.03699974 -0.0031291584
000280 c5 15 2d be 28 04 3b 3c 11 ec 26 3d c7 57 34 3e
       -0.16902836 0.011414565 0.040752474 0.1761161
000290 c2 47 70 3c 20 3b 5f 3c 3f 9a 9d bd da ab 7f 3d
       0.014665546 0.013624936 -0.07695436 0.06241975
0002a0 76 f8 98 bd ec 61 93 3d e7 ae 98 bb 4f a8 1a 3d
       -0.07469265 0.071964115 -0.004659522 0.037758168
0002b0 d5 2a 05 3e e7 b7 3d bd 5c 73 9a bd 3e 9e 86 3c
       0.1300462 -0.04631796 -0.07541534 0.016432878
0002c0 ed fe f8 bd 4e 19 fc bb 26 1d 6b 3c e8 c2 4b bd
       -0.12157998 -0.0076934462 0.014350211 -0.049746424
0002d0 be e7 15 3d 2d 97 a1 3d 79 d1 9b b9 90 37 52 bd
       0.03659796 0.078901626 -0.00029719973 -0.05132252
0002e0 01 2f 87 3d 5a 76 1a 3e f4 00 93 3b 1f 24 4a 3e
       0.06600762 0.1508421 0.0044861976 0.19740342
0002f0 2f 8e 86 3d 53 7e 7e bd 70 e6 4f 3c 09 72 c4 bd
       0.06570088 -0.06213219 0.012689218 -0.09592063
000300 e9 e7 96 3d ad 03 a0 3d 5c 38 f9 bc 40 ca bd bc
       0.07368452 0.07813201 -0.030422382 -0.02316773
000310 39 bf 51 bd 91 55 03 be 3b 80 81 3b 79 b8 b4 bc
       -0.051207755 -0.1282561 0.003952054 -0.02206062
000320 ce 50 11 bd b3 85 56 3b 2c d9 3f 3c 39 fd cb bb
       -0.035477452 0.00327335 0.011709493 -0.006225255
000330 9d 78 92 3d f1 7a f2 3d 19 32 fe bc 43 3f 80 bc
       0.071519114 0.118398555 -0.031029748 -0.015655166
000340 69 de 8f bd e9 58 22 bd ba 66 31 bc 40 89 e7 3d
       -0.07024843 -0.039635573 -0.010827715 0.11305475
000350 4b db d2 bc db c7 c7 bc 2c ee 13 3d a3 c3 cd 3d
       -0.025739333 -0.02438729 0.03611581 0.1004708
000360 17 a9 64 3b 40 ac b0 3c 4b 4d 4a 3d 51 3a 16 3e
       0.0034890824 0.02156651 0.04939012 0.14670683
000370 db 78 b7 bb bf 78 c4 bd 78 9a e7 bd c0 14 42 3d
       -0.005599124 -0.09593343 -0.113087595 0.04738307
000380 9f 44 ac bc 81 bc 24 be f1 13 ec bd 54 e6 d5 bb
       -0.021028815 -0.16087534 -0.11527241 -0.0065277014
000390 57 2f 79 3d 5b de 10 be 2a d1 2e 3a 77 4a e7 3c
       0.060836162 -0.14147322 0.0006668741 0.02823375
0003a0 c1 b0 2c be f7 7a b6 bc 68 36 6c 3d e2 32 c6 3d
       -0.16864301 -0.022275431 0.057669073 0.09677674
0003b0 e0 2e e3 bd 08 43 3e bc 8f 36 b8 bd 91 d3 df bd
       -0.11092925 -0.011612661 -0.08994781 -0.10929025
0003c0 4d 90 0a 3d 38 a9 d9 3d 31 c5 ac bd 84 51 04 3e
       0.033829022 0.10627979 -0.08436049 0.1292172
0003d0 5b 78 2d bd e3 d8 53 bd 70 c8 7e bd 43 da 45 3c
       -0.042351108 -0.05172051 -0.06220287 0.012075963
0003e0 d6 e5 f2 bc fa b5 f0 bd 66 ca d1 bc 33 68 e6 bc
       -0.02965061 -0.11753459 -0.025609206 -0.028125858
0003f0 a9 0d ee 3d d4 94 a1 3d 4b 71 2e 3d 8e cc 73 3d
       0.11623699 0.07889715 0.042588513 0.05952125

network_body._body_endoder.seq_layers.0.bias f4 [128]
000000 00 00 00 00 00 00 00 00 00 00 00 00 00 00 00 00
       0.0 0.0 0.0 0.0
000010 00 00 00 00 00 00 00 00 00 00 00 00 00 00 00 00
       0.0 0.0 0.0 0.0
000020 00 00 00 00 00 00 00 00 00 00 00 00 00 00 00 00
       0.0 0.0 0.0 0.0
000030 00 00 00 00 00 00 00 00 00 00 00 00 00 00 00 00
       0.0 0.0 0.0 0.0
000040 00 00 00 00 00 00 00 00 00 00 00 00 00 00 00 00
       0.0 0.0 0.0 0.0
000050 00 00 00 00 00 00 00 00 00 00 00 00 00 00 00 00
       0.0 0.0 0.0 0.0
000060 00 00 00 00 00 00 00 00 00 00 00 00 00 00 00 00
       0.0 0.0 0.0 0.0
000070 00 00 00 00 00 00 00 00 00 00 00 00 00 00 00 00
       0.0 0.0 0.0 0.0
000080 00 00 00 00 00 00 00 00 00 00 00 00 00 00 00 00
       0.0 0.0 0.0 0.0
000090 00 00 00 00 00 00 00 00 00 00 00 00 00 00 00 00
       0.0 0.0 0.0 0.0
0000a0 00 00 00 00 00 00 00 00 00 00 00 00 00 00 00 00
       0.0 0.0 0.0 0.0
0000b0 00 00 00 00 00 00 00 00 00 00 00 00 00 00 00 00
       0.0 0.0 0.0 0.0
0000c0 00 00 00 00 00 00 00 00 00 00 00 00 00 00 00 00
       0.0 0.0 0.0 0.0
0000d0 00 00 00 00 00 00 00 00 00 00 00 00 00 00 00 00
       0.0 0.0 0.0 0.0
0000e0 00 00 00 00 00 00 00 00 00 00 00 00 00 00 00 00
       0.0 0.0 0.0 0.0
0000f0 00 00 00 00 00 00 00 00 00 00 00 00 00 00 00 00
       0.0 0.0 0.0 0.0
000100 00 00 00 00 00 00 00 00 00 00 00 00 00 00 00 00
       0.0 0.0 0.0 0.0
000110 00 00 00 00 00 00 00 00 00 00 00 00 00 00 00 00
       0.0 0.0 0.0 0.0
000120 00 00 00 00 00 00 00 00 00 00 00 00 00 00 00 00
       0.0 0.0 0.0 0.0
000130 00 00 00 00 00 00 00 00 00 00 00 00 00 00 00 00
       0.0 0.0 0.0 0.0
000140 00 00 00 00 00 00 00 00 00 00 00 00 00 00 00 00
       0.0 0.0 0.0 0.0
000150 00 00 00 00 00 00 00 00 00 00 00 00 00 00 00 00
       0.0 0.0 0.0 0.0
000160 00 00 00 00 00 00 00 00 00 00 00 00 00 00 00 00
       0.0 0.0 0.0 0.0
000170 00 00 00 00 00 00 00 00 00 00 00 00 00 00 00 00
       0.0 0.0 0.0 0.0
000180 00 00 00 00 00 00 00 00 00 00 00 00 00 00 00 00
       0.0 0.0 0.0 0.0
000190 00 00 00 00 00 00 00 00 00 00 00 00 00 00 00 00
       0.0 0.0 0.0 0.0
0001a0 00 00 00 00 00 00 00 00 00 00 00 00 00 00 00 00
       0.0 0.0 0.0 0.0
0001b0 00 00 00 00 00 00 00 00 00 00 00 00 00 00 00 00
       0.0 0.0 0.0 0.0
0001c0 00 00 00 00 00 00 00 00 00 00 00 00 00 00 00 00
       0.0 0.0 0.0 0.0
0001d0 00 00 00 00 00 00 00 00 00 00 00 00 00 00 00 00
       0.0 0.0 0.0 0.0
0001e0 00 00 00 00 00 00 00 00 00 00 00 00 00 00 00 00
       0.0 0.0 0.0 0.0
0001f0 00 00 00 00 00 00 00 00 00 00 00 00 00 00 00 00
       0.0 0.0 0.0 0.0

network_body._body_endoder.seq_layers.2.weight f4 [128, 128]
000000 f8 62 df bd 96 a0 f1 3d a7 cd 1b bb b5 1f 58 3d
       -0.10907549 0.117982075 -0.0023773701 0.052764613
000010 0b 62 9e bd 2c a9 32 3e 12 22 54 bc 22 ab 9c bc
       -0.07733544 0.17447346 -0.012947576 -0.019124571
000020 e4 bb 2d 3d 0d 7c 89 3d 8b 85 e2 3c 87 03 e3 bb
       0.042415515 0.06713114 0.027651569 -0.0069279107
000030 aa d8 fb 3d 46 71 16 be 84 0b 6e 3d ff dd 18 3d
       0.12297185 -0.14691648 0.05811645 0.037321087
000040 18 9b 91 3c 8e a1 34 3d 5d d3 b5 bd 81 a3 ee bd
       0.01777415 0.044099383 -0.08878205 -0.1165228
000050 90 e9 85 3a d1 73 03 bd 11 bf 0c 3d b9 ce cb 3d
       0.0010216702 -0.032092873 0.034361903 0.099515386
000060 e8 ad 67 3d 67 80 9c 3c 40 12 f2 bd a4 47 41 3e
       0.056562334 0.019104196 -0.11819887 0.18874985
000070 d5 8b 40 3d 91 a6 38 be 6e b3 f4 3d 03 3e 56 be
       0.047008354 -0.1803229 0.11948286 -0.20922093
000080 6e 22 12 be 0d d8 f6 bb ee 67 83 3c 38 82 b5 bd
       -0.14270946 -0.0075330795 0.016040768 -0.08862728
000090 ba f7 f4 bc 1e 44 92 3d 46 e9 b2 39 1f aa 93 3d
       -0.029903281 0.071418986 0.00034124608 0.072101824
0000a0 0e a5 9b 3d 75 de a6 bd 01 eb d2 3d ec 22 d3 bc
       0.07599841 -0.08147899 0.1029873 -0.025773488
0000b0 fb ce 23 bb 27 a0 90 bd c5 49 0c bd af 5e 86 3d
       -0.0024995196 -0.07061797 -0.03425004 0.06561028
0000c0 43 cf d7 3c 61 53 49 bd 7e 1c 3e bd a8 c5 36 bd
       0.026343947 -0.049151782 -0.04641389 -0.044622093
0000d0 dc c9 9d 3d 71 6d cd 3c 9b f5 c3 3d 29 40 c2 bd
       0.07704517 0.0250766 0.0956833 -0.09484894
0000e0 36 91 ad bd 67 8f 28 3d 6f 62 90 3d 2b b9 8e 3d
       -0.084749624 0.041152384 0.07050025 0.06968912
0000f0 c4 b2 8b 3d 71 eb ac 3d ba d9 31 3d ea d9 5b bb
       0.06821206 0.084433444 0.04342053 -0.0033546635
000100 3a e5 3e 3e 9f 17 92 bd cc 3a e2 3d f6 99 63 bd
       0.1864213 -0.071334116 0.11046371 -0.05556675
000110 00 3c ea 3d 6a 6b 1b 3d 83 83 05 3e a9 13 b7 3d
       0.11437225 0.037944235 0.13038449 0.08939297
000120 6d 34 0f 3d 63 d8 f1 3c fe ce be bb 8e bb bd 3c
       0.034962106 0.029522127 -0.0058230152 0.023160722
000130 f1 2b 97 3d 5a 14 f4 bd f5 20 02 3d 79 8e f9 bc
       0.07381428 -0.11917944 0.03176971 -0.030463444
000140 19 c1 46 bc 2a 56 01 bd 83 df d0 bd ec 6a 47 3d
       -0.012130999 -0.031576313 -0.101988815 0.048685953
000150 b0 5f 04 bd bd e2 ef 3d d4 05 f0 bc d5 a6 d5 bc
       -0.032317817 0.11713169 -0.029299654 -0.026080528
000160 d8 ee 1b 3e b3 ff 3b bd e4 49 6e 3c bd cf fb 3d
       0.1522783 -0.04589815 0.014543984 0.12295482
000170 c7 62 3f 3c 39 86 36 be 32 90 36 3d 5f 81 db bd
       0.011681265 -0.1782464 0.04457111 -0.10718035
000180 46 eb 0f 3e 3f d4 23 39 30 c2 17 3e 87 47 35 3c
       0.14054593 0.00015623959 0.1482017 0.011064417
000190 51 b5 17 bc 48 a9 a9 bb c1 97 bc bd 10 53 27 bc
       -0.009259538 -0.0051776506 -0.09208632 -0.010212675
0001a0 22 3a 2e bd a5 e5 96 bd 93 e0 e8 bb 57 fe aa bd
       -0.04253591 -0.0736802 -0.0071068495 -0.08349293
0001b0 43 71 6b 3d 95 53 25 3d 97 16 4b 39 1b 5e af bd
       0.05748106 0.040362913 0.00019368004 -0.08562871
0001c0 06 80 9c 3c 06 ae 15 3c f2 f6 4c 3d d1 2d d4 3c
       0.019104015 0.009135729 0.050040193 0.025900753
0001d0 74 14 9c 3d 20 11 4c bc 2a c5 8b bd 40 70 a3 3c
       0.076210886 -0.012455255 -0.068247154 0.019950986
0001e0 3d 31 16 3d b9 1c 82 3c 04 e5 fe bd a2 09 48 bd
       0.03666805 0.015882837 -0.12446025 -0.04883731
0001f0 9f 8f 69 3d 96 3e 17 3c 16 1b ba 3c 6d 0c ba bc
       0.057021733 0.00923123 0.022717994 -0.022711003
000200 f1 da 28 3e 1e 4d 19 be 55 b4 15 3e 79 2e be bd
       0.1648977 -0.14970824 0.14619572 -0.09286208
000210 2c bb ad bd dc c4 25 3d 72 81 18 be 1c 27 1d ba
       -0.08482966 0.040470943 -0.1489313 -0.00059949025
000220 9d 64 a7 3b 00 0e 25 bd 4a 89 a9 bc ee be 61 3d
       0.0051084296 -0.040296555 -0.020695347 0.055113725
000230 1a 43 47 3c 5f 9f 99 bc b4 c7 28 bb 6a d9 09 3e
       0.012161994 -0.018752752 -0.0025753798 0.13461843
000240 4f 52 a1 bd 1a 12 04 be 71 93 cc 3d d6 cc 79 3d
       -0.07877027 -0.1289753 0.0998906 0.060986362
000250 9d 15 57 3d 7c 64 32 3c ba f4 d6 bd 24 58 b1 3d
       0.052510846 0.010888215 -0.10495897 0.086593896
000260 97 57 bc 3c 05 d7 dc bd 11 32 08 bd 19 a7 22 bd
       0.022990985 -0.10783199 -0.033250872 -0.039710138
000270 c6 49 04 3c 5b 1c f6 3c 4d 2a 02 be e1 b8 bf 38
       0.00807423 0.030042818 -0.12711449 9.142026e-05
000280 fa 84 07 bc 9d eb b3 3d 73 d6 12 3d 26 f8 ff 3d
       -0.00827145 0.08785174 0.035849046 0.124985024
000290 d9 29 0c be bc d3 36 bd 04 ab be 3d 7e 16 02 3e
       -0.13687839 -0.04463552 0.093099624 0.12703893
0002a0 77 22 a3 bd 85 20 c6 bd e6 c2 ad bd dd 52 9a 3c
       -0.07965558 -0.09674171 -0.084844396 0.01883834
0002b0 0e 53 67 3d 7c 32 1d be 76 78 05 bd 45 b9 3a be
       0.05647569 -0.1535129 -0.032585584 -0.18234737
0002c0 ed 84 62 bc 78 86 d5 3d df 5a a9 bc 53 60 79 bd
       -0.013825637 0.104260385 -0.020673214 -0.060882878
0002d0 34 d4 9b bd bf 11 f8 3c 9a 00 5a bb 40 3b e8 bd
       -0.07608834 0.0302819 -0.0033264519 -0.11339426
0002e0 c0 90 c7 bd 81 69 05 bc 5e a2 dd 3c e5 18 17 bb
       -0.09744406 -0.00814283 0.027054962 -0.002305561
0002f0 2a 43 ca bd 24 91 ff 3c 41 f2 a6 bd d5 59 0e 3e
       -0.09876092 0.031197138 -0.08151675 0.13901456
000300 6a eb b3 bc 5a 75 ca bd 58 7d 83 3d 1e 1a 11 3e
       -0.02196284 -0.09885664 0.06420392 0.14170119
000310 58 dc a4 3d 0f 97 22 3d 8e 92 1a 3e a5 ff 86 bd
       0.0804984 0.039694842 0.15094969 -0.06591729
000320 7d f4 0f bd 12 73 d1 bd 03 d2 fa 3d 1b c7 1c 3d
       -0.03514527 -0.10227026 0.12247088 0.03827582
000330 c4 00 42 3e e0 c7 2d bd 39 93 fd 3c 7d c6 bf bc
       0.18945605 -0.042426944 0.03095399 -0.023410076
000340 c0 91 be 3d 01 65 97 3d f5 62 26 3e c8 c7 26 bc
       0.09305143 0.07392312 0.16248687 -0.0101794675
000350 7c 75 d1 3b 0c c3 27 3d 13 73 b7 bd 86 80 0e be
       0.006392179 0.040957496 -0.089574955 -0.13916215
000360 f3 0e 5b 3c 4a c3 02 be 68 25 19 be 46 84 1f 3d
       0.013370263 -0.1276981 -0.14955676 0.038944505
000370 ab e2 cd 3c 29 26 ad bc 23 d7 b2 3d 64 28 c6 3d
       0.025132498 -0.02113636 0.0873244 0.09675673
000380 1f 1e 13 bd a4 60 eb bd 97 a0 dd bb 08 89 d0 3c
       -0.035917398 -0.11493042 -0.0067635286 0.025455967
000390 4e 44 da bc f5 d2 91 3d 58 94 9c 3d 65 75 b4 3d
       -0.026643898 0.07120315 0.07645482 0.08811454
0003a0 fe d7 7e 3d c5 93 16 3e c1 68 79 3d 73 0f 8c bd
       0.062217705 0.14704807 0.060890917 -0.06838884
0003b0 d7 28 4b 3d 23 2f fc bd 05 cf 6a be b1 c8 f5 bd
       0.049599495 -0.12313678 -0.22930534 -0.120011695
0003c0 97 a7 37 3e e1 bd a0 3d 3e fd 2e 3b 7b b6 3d bd
       0.17935024 0.078487165 0.0026701237 -0.046316605
0003d0 40 57 84 bd 7e 0a 18 3e 8a 2b 7b bc 12 59 6c bc
       -0.06461954 0.14847752 -0.015330205 -0.014425533
0003e0 6f ea 3b bd d1 25 b0 bd 8d 0f 0a 3d 72 9b 27 bd
       -0.04587787 -0.08600963 0.033706237 -0.04091973
0003f0 73 f4 1d bd 4a 04 5a 3c a9 0c 8f 3d b5 ec 1c bd
       -0.038563203 0.013306687 0.069848366 -0.03831168

network_body._body_endoder.seq_layers.2.bias f4 [128]
000000 00 00 00 00 00 00 00 00 00 00 00 00 00 00 00 00
       0.0 0.0 0.0 0.0
000010 00 00 00 00 00 00 00 00 00 00 00 00 00 00 00 00
       0.0 0.0 0.0 0.0
000020 00 00 00 00 00 00 00 00 00 00 00 00 00 00 00 00
       0.0 0.0 0.0 0.0
000030 00 00 00 00 00 00 00 00 00 00 00 00 00 00 00 00
       0.0 0.0 0.0 0.0
000040 00 00 00 00 00 00 00 00 00 00 00 00 00 00 00 00
       0.0 0.0 0.0 0.0
000050 00 00 00 00 00 00 00 00 00 00 00 00 00 00 00 00
       0.0 0.0 0.0 0.0
000060 00 00 00 00 00 00 00 00 00 00 00 00 00 00 00 00
       0.0 0.0 0.0 0.0
000070 00 00 00 00 00 00 00 00 00 00 00 00 00 00 00 00
       0.0 0.0 0.0 0.0
000080 00 00 00 00 00 00 00 00 00 00 00 00 00 00 00 00
       0.0 0.0 0.0 0.0
000090 00 00 00 00 00 00 00 00 00 00 00 00 00 00 00 00
       0.0 0.0 0.0 0.0
0000a0 00 00 00 00 00 00 00 00 00 00 00 00 00 00 00 00
       0.0 0.0 0.0 0.0
0000b0 00 00 00 00 00 00 00 00 00 00 00 00 00 00 00 00
       0.0 0.0 0.0 0.0
0000c0 00 00 00 00 00 00 00 00 00 00 00 00 00 00 00 00
       0.0 0.0 0.0 0.0
0000d0 00 00 00 00 00 00 00 00 00 00 00 00 00 00 00 00
       0.0 0.0 0.0 0.0
0000e0 00 00 00 00 00 00 00 00 00 00 00 00 00 00 00 00
       0.0 0.0 0.0 0.0
0000f0 00 00 00 00 00 00 00 00 00 00 00 00 00 00 00 00
       0.0 0.0 0.0 0.0
000100 00 00 00 00 00 00 00 00 00 00 00 00 00 00 00 00
       0.0 0.0 0.0 0.0
000110 00 00 00 00 00 00 00 00 00 00 00 00 00 00 00 00
       0.0 0.0 0.0 0.0
000120 00 00 00 00 00 00 00 00 00 00 00 00 00 00 00 00
       0.0 0.0 0.0 0.0
000130 00 00 00 00 00 00 00 00 00 00 00 00 00 00 00 00
       0.0 0.0 0.0 0.0
000140 00 00 00 00 00 00 00 00 00 00 00 00 00 00 00 00
       0.0 0.0 0.0 0.0
000150 00 00 00 00 00 00 00 00 00 00 00 00 00 00 00 00
       0.0 0.0 0.0 0.0
000160 00 00 00 00 00 00 00 00 00 00 00 00 00 00 00 00
       0.0 0.0 0.0 0.0
000170 00 00 00 00 00 00 00 00 00 00 00 00 00 00 00 00
       0.0 0.0 0.0 0.0
000180 00 00 00 00 00 00 00 00 00 00 00 00 00 00 00 00
       0.0 0.0 0.0 0.0
000190 00 00 00 00 00 00 00 00 00 00 00 00 00 00 00 00
       0.0 0.0 0.0 0.0
0001a0 00 00 00 00 00 00 00 00 00 00 00 00 00 00 00 00
       0.0 0.0 0.0 0.0
0001b0 00 00 00 00 00 00 00 00 00 00 00 00 00 00 00 00
       0.0 0.0 0.0 0.0
0001c0 00 00 00 00 00 00 00 00 00 00 00 00 00 00 00 00
       0.0 0.0 0.0 0.0
0001d0 00 00 00 00 00 00 00 00 00 00 00 00 00 00 00 00
       0.0 0.0 0.0 0.0
0001e0 00 00 00 00 00 00 00 00 00 00 00 00 00 00 00 00
       0.0 0.0 0.0 0.0
0001f0 00 00 00 00 00 00 00 00 00 00 00 00 00 00 00 00
       0.0 0.0 0.0 0.0

value_heads.value_heads.extrinsic.weight f4 [1, 128]
000000 ca 78 3d 3e c4 f1 a7 3d f0 69 7e bd e8 8c b5 bc
       0.18503109 0.0820041 -0.06211275 -0.022161916
000010 88 d4 2f bd 62 24 89 bd 36 8c 4f 3e 10 0e 50 bc
       -0.042927295 -0.066963926 0.2026833 -0.012698665
000020 ba 40 5a 3e 84 0e b8 3d 38 4e bd 3d ba 27 3d 3e
       0.21313754 0.08987144 0.09243435 0.18472186
000030 8a 53 50 3e 78 77 35 bd 90 5b aa bc e8 6b d3 bc
       0.20344368 -0.044303387 -0.020795614 -0.02580829
000040 79 5c c9 bd 72 ef 00 be 24 66 02 3e 2a b2 07 be
       -0.09832091 -0.12591341 0.12734276 -0.13251558
000050 32 9f 89 bd 48 cd 63 3d fc cc 0f be 3c ed 00 be
       -0.06719817 0.055615693 -0.14043039 -0.12590498
000060 00 93 1f bb 1e 38 c2 bd 10 d4 b3 3d 3e c8 2e 3e
       -0.0024349093 -0.0948336 0.08780682 0.17068574
000070 ea 8c 2a 3e 00 db 66 ba 18 c8 b8 bc fe 6b 90 bd
       0.16655317 -0.0008806437 -0.02255635 -0.07051848
000080 9e a9 1e 3e 08 0c 05 be 60 3a 41 bc 84 c5 88 bd
       0.15494391 -0.12992871 -0.011793703 -0.06678298
000090 c8 ef fc 3d 61 3e 4f be f0 d2 f5 bc a4 0e c0 3d
       0.12350422 -0.2023864 -0.03000781 0.093777925
0000a0 ec e6 f1 bd bb 8f c7 bd 8f 42 06 be 4c e2 5c bd
       -0.11811623 -0.09744211 -0.13111328 -0.05392675
0000b0 50 ae 59 bd 64 29 28 be 60 c3 4a be da 0e 44 3e
       -0.053144753 -0.1642204 -0.19801092 0.1914629
0000c0 2a 7e 8a bd 9d f6 36 be f3 7b 1f be 00 79 d5 bc
       -0.06762345 -0.17867513 -0.15574627 -0.026058674
0000d0 84 0f 18 be 20 e4 4c be a6 51 17 3e f8 ce b2 bd
       -0.14849669 -0.20008898 0.1477724 -0.087308824
0000e0 24 b9 21 3e ae 9f 16 be 72 5a 4e be 42 9a 56 be
       0.15793282 -0.1470935 -0.2015169 -0.20957282
0000f0 e4 e8 48 3e 44 52 84 3d ca 39 37 be 54 f7 93 3d
       0.1962009 0.064610034 -0.17893139 0.072249085
000100 2a 8d 3f be 63 40 4b be 0e ba 40 3e a0 00 68 3d
       -0.18706194 -0.1984878 0.18820974 0.05664122
000110 30 fc 74 bc 38 06 86 bc b6 74 06 3e f8 e6 42 3d
       -0.014952704 -0.016360387 0.13130459 0.04758355
000120 04 fd 18 3e 27 1b ff bd 98 0c 34 3e b9 42 1f be
       0.14940268 -0.12456351 0.17582929 -0.15552796
000130 f8 6d 00 3e 80 90 a0 bc 01 6a c4 bd 00 40 49 bb
       0.1254195 -0.019600153 -0.09590531 -0.0030708313
000140 80 66 7d bd c0 d1 7e bb d8 ee 5d bd 94 72 05 3d
       -0.06186533 -0.0038882345 -0.054182857 0.032579973
000150 55 c0 4c be 74 21 a0 3d 20 ef c9 bd 00 03 86 3d
       -0.19995244 0.07818881 -0.098600626 0.06543541
000160 0c ce 3a 3e 24 d2 21 3e ae 31 80 bd b8 65 7b 3d
       0.18242663 0.15802819 -0.06259476 0.061376303
000170 6c 6d 2a 3e 86 f9 2a 3e 38 20 fa bc f0 cc 1d 3e
       0.16643304 0.16696748 -0.030532941 0.15410209
000180 74 fa 67 bd 59 f8 2f be b3 18 02 be e8 0a af 3d
       -0.056635335 -0.17184581 -0.12704735 0.08547002
000190 a1 ad 24 be 90 09 42 3d 9c 6b f0 3d 38 bd e4 3d
       -0.16081859 0.0473724 0.11739275 0.11168903
0001a0 64 a1 b6 3d a2 a2 26 be e5 45 5c be c0 ff 1c bb
       0.089175016 -0.16272977 -0.21511038 -0.002395615
0001b0 9e 96 47 3e 50 fd 8b bc 90 41 3d bd f3 92 4d be
       0.1949105 -0.017088562 -0.046205103 -0.20075588
0001c0 a2 6a 52 3e 40 d0 b8 3b 00 10 a2 b9 50 c8 e3 3d
       0.2054849 0.0056400597 -0.0003091097 0.11122191
0001d0 82 1c 35 3e e4 cf 15 3e 14 c4 ce 3d a8 43 ba 3c
       0.17686656 0.14630085 0.10095993 0.02273734
0001e0 60 5e 23 3c 86 69 35 3e 18 9d 25 3e 29 8d 26 be
       0.009971231 0.17716035 0.16173208 -0.16264786
0001f0 3c 71 26 3e 30 15 e4 3c 26 9a 30 3e e0 64 a1 bc
       0.16254133 0.027842134 0.17246303 -0.019701421
