results/tetris9/TetrisAgent.onnx (onnx, 175963 bytes, 6 tensors)

network_body._body_endoder.seq_layers.0.weight f4 [128, 200]
0	0x3d840cd8	0.06447762
1	0xbb404542	-0.0029338156
2	0x3e0e1b9a	0.13877717
3	0xbdc929cc	-0.09822425
4	0xbd8e4b42	-0.06947948
5	0xbc6e2cbe	-0.014537035
6	0x3dae3784	0.085066825
7	0x3d5c8fe7	0.053848173
8	0x3ccafe22	0.024779383
9	0xbd0617f1	-0.032737676
10	0x3dbb5fe6	0.091491506
11	0xbceaf855	-0.028682867
12	0x3afe3a44	0.0019396027
13	0xbcbfe446	-0.023424279
14	0x3d24e1ea	0.04025451
15	0xbc7bc1ba	-0.015366012
16	0x3cdb85c4	0.026797183
17	0xbd4215d1	-0.047384087
18	0xbdb97b7b	-0.09056755
19	0x3c21f6ca	0.009885499
20	0x3b2c1b73	0.0026261478
21	0x3d6a7a91	0.057245795
22	0xbbf76c17	-0.007550727
23	0xbe40d41d	-0.18830915
24	0x3ca4222d	0.020035828
25	0xbda9adca	-0.08285101
26	0xbd60e6a3	-0.054907452
27	0x3dbf9c60	0.09355998
28	0x3d4645ba	0.04840634
29	0xbdc51616	-0.09623353
30	0xba81e76c	-0.0009910888
31	0x3cc81d2e	0.024427976
32	0x3cdc0c1a	0.02686124
33	0xbb540de7	-0.003235692
34	0xbd38d218	-0.045122236
35	0x3d970431	0.07373846
36	0xbd059878	-0.03261611
37	0xbd0ec468	-0.034855276
38	0xbd84c4e9	-0.0648287
39	0xbe28b509	-0.1647531
40	0xbd45d55f	-0.04829919
41	0x3d1e6bc8	0.038677007
42	0x3bb2f866	0.0054617403
43	0x3d1cb2da	0.038256504
44	0x3d8aa3e9	0.06769545
45	0x3d748ffc	0.059707627
46	0x3cfbb585	0.030726204
47	0x3e336be0	0.1752162
48	0x3c7323e1	0.014840097
49	0x3da2cef6	0.07949631
50	0x3d9722cf	0.07379686
51	0x3d89188a	0.066941336
52	0x3d8f4c8b	0.06997021
53	0x3c37f012	0.011226671
54	0x3dc78361	0.097418554
55	0xbdf6142f	-0.120155685
56	0x3d836324	0.06415394
57	0x3ca52f85	0.02016426
58	0xbc2add89	-0.010428795
59	0x3d108edd	0.035292495
60	0xbdb7b8bf	-0.089707844
61	0xbcba41c9	-0.022736447
62	0xbda778d8	-0.08177346
63	0xbd560e15	-0.052259523
64	0xbc4a13f0	-0.012333855
65	0xbca26e64	-0.019828029
66	0xbd0d216c	-0.0344557
67	0x3c970eb0	0.01843962
68	0xbd77b3c3	-0.06047417
69	0x3d92a64c	0.07160625
70	0xbccdafd9	-0.025108265
71	0xbe29094b	-0.16507451
72	0x3dbf0154	0.09326425
73	0x3d9745fb	0.073863946
74	0x3d44ad5a	0.048016883
75	0xbd634afd	-0.055491436
76	0xbcf94c1d	-0.030431801
77	0xbcf7b61f	-0.03023821
78	0xbda51eb5	-0.080624975
79	0xbd7ec2fc	-0.06219767
80	0xbd1bb1a2	-0.0380112
81	0xbd41fbc5	-0.047359247
82	0xbc12519c	-0.00893059
83	0xbbe3c60e	-0.0069511
84	0xbb0bea59	-0.00213494
85	0xbc2e7c20	-0.010649711
86	0x3d38c7e0	0.04511249
87	0xbd96dbaa	-0.07366116
88	0xbd2f2daa	-0.042768158
89	0xbd9f3f9e	-0.07775806
90	0xbd386d6f	-0.04502624
91	0xbbdaa9f5	-0.0066730925
92	0xbcbabed1	-0.022796066
93	0x3c643ca7	0.013930476
94	0x3c3b8f35	0.011447717
95	0x3e37f9c1	0.17966367
96	0xbd1d1f6b	-0.03836004
97	0x3d66c746	0.056342386
98	0x3d0466b7	0.03232452
99	0x3c7f37bf	0.015577256
100	0xbcf1dd5f	-0.029524503
101	0x3d7c250a	0.06155876
102	0xbd3c60fe	-0.045990936
103	0xbdc07622	-0.09397532
104	0x3da49d05	0.080377616
105	0x3d453777	0.0481486
106	0x3dac732c	0.08420405
107	0x3dcdb503	0.10044291
108	0x3d0fc986	0.035104297
109	0x3a97b6ab	0.0011574825
110	0xbd58ff4a	-0.052977838
111	0x3d52b531	0.05144233
112	0xbd8a9c0b	-0.06768044
113	0xbc92ed27	-0.017935349
114	0xbdb2e2e7	-0.087346844
115	0xbdb21002	-0.086944595
116	0x3d205232	0.039140888
117	0x3abd3c54	0.0014437535
118	0x3da91c0d	0.082573034
119	0x3c395cf4	0.011313666
120	0x3d39b146	0.045335077
121	0x3d94aa47	0.0725904
122	0xbd8e442b	-0.06946596
123	0xbd6ca367	-0.05777302
124	0x3c904d36	0.017614942
125	0xbdf9f6f5	-0.122053064
126	0x3d87b03e	0.066254124
127	0x3d1280b8	0.035767287
128	0xbd229777	-0.03969523
129	0x3c8e2285	0.017350445
130	0x3c8b914f	0.017037062
131	0x3dc566e9	0.09638769
132	0x3dfa81be	0.122317776
133	0xbe683aeb	-0.22678725
134	0xbe25443a	-0.16139308
135	0x3d48dd50	0.049039185
136	0xbd8ca548	-0.068674624
137	0xbe5223bd	-0.20521446
138	0x3d805b11	0.062673695
139	0x3ca886b4	0.020572044
140	0x3d69f564	0.05711879
141	0xbd50e896	-0.05100306
142	0xbc940468	-0.018068507
143	0xbd423719	-0.047415826
144	0xbe0a860c	-0.13527697
145	0x3da00308	0.07813078
146	0x3c8e7948	0.017391816
147	0x3d59e9b7	0.053201403
148	0x3d10b923	0.03533281
149	0xbda3e9ff	-0.080036156
150	0xbd80fd1e	-0.06298278
151	0x3c690284	0.014221791
152	0xbd5c5377	-0.053790536
153	0xbddec1cb	-0.10876807
154	0x3d298e7b	0.041395646
155	0xbbcfb982	-0.006339253
156	0x3e256912	0.16153362
157	0x3d4e07f7	0.050300565
158	0xbe4100a2	-0.18847898
159	0xbcf7b50f	-0.030237703
160	0xbacf09aa	-0.0015795727
161	0x3e103aa5	0.14084871
162	0x3db10242	0.08643009
163	0x3d3bde7d	0.04586648
164	0xbc13400b	-0.008987437
165	0x3c409e00	0.01175642
166	0xbcaced9b	-0.021109393
167	0x3d7bc01d	0.06146251
168	0x3d14771d	0.036246408
169	0x3e14d634	0.14534837
170	0xbde14d85	-0.11001114
171	0x3d1acfdd	0.03779589
172	0x3e4b70fc	0.19867319
173	0x3c546045	0.012962406
174	0xbd3206d1	-0.043463532
175	0xbc7f7728	-0.015592374
176	0x3e1d4e62	0.15361932
177	0x3c4650ec	0.012104254
178	0x3db593e9	0.08866102
179	0xbd41c406	-0.047306083
180	0xbcfb5802	-0.030681614
181	0xbd571095	-0.05250605
182	0xbd34fc76	-0.044186078
183	0xbd268192	-0.04065091
184	0x3c1df121	0.009640009
185	0x3d2a7dee	0.041624002
186	0x3df73ff0	0.12072742
187	0x3d26d85e	0.040733688
188	0x3d8ff411	0.07028974
189	0x3b5e116a	0.0033884891
190	0xbd1f0829	-0.03882614
191	0xbbc6c1db	-0.00606559
192	0xbcc30969	-0.023808198
193	0xbdad5cf4	-0.08464995
194	0x3c4ead96	0.012614628
195	0xbd78945c	-0.06068836
196	0xbd93811e	-0.072023615
197	0xbd5b0755	-0.05347379
198	0xbce69f74	-0.028152205
199	0xbd1dcddc	-0.0385264
200	0x3e02482d	0.12722845
201	0xbd066ff4	-0.03282161
202	0x3e06612b	0.13123004
203	0x3d52bc03	0.051448833
204	0x3d8c7c68	0.06859666
205	0xbd66c9d9	-0.05634484
206	0xbb218720	-0.0024647191
207	0x3d1955fb	0.037435513
208	0xbddd13ac	-0.10794768
209	0xbdf4980e	-0.11943065
210	0x3dd90e4f	0.10598432
211	0x3d830a58	0.06398457
212	0x3d75aef7	0.059981313
213	0x3da1e928	0.07905799
214	0x3dc60baf	0.09670197
215	0xbb4d9482	-0.0031369035
216	0x3c29c6d3	0.010362345
217	0x3c649c57	0.01395329
218	0xbd4400df	-0.047852393
219	0xb8f4f5ed	-0.00011680634
220	0x3de1a763	0.110182546
221	0x3c917bbe	0.0177592
222	0xbdf6eaee	-0.12056528
223	0x3b9be249	0.0047572
224	0x3cdb6e56	0.02678601
225	0xbcc738f7	-0.024319155
226	0x3be57ac2	0.0070031593
227	0x3e3388f4	0.17532712
228	0xbdb77e4e	-0.089596376
229	0xbe1192ef	-0.14216207
230	0x3d818f9f	0.06326222
231	0xbd3213d3	-0.043475937
232	0x3da77a27	0.081775956
233	0xbde9cc2b	-0.11415895
234	0x37db3a41	2.6133961e-05
235	0x3b451cdd	0.0030077018
236	0x3c3d48cf	0.011553003
237	0x3cbc00c5	0.022949586
238	0xbe12037f	-0.14259146
239	0xbceabdf2	-0.028655026
240	0x3d8cf2ef	0.068822734
241	0xbb7addf0	-0.0038279258
242	0x3cb03f8c	0.021514677
243	0xbd96a72c	-0.07356104
244	0xbe019e73	-0.126581
245	0x3d368d67	0.044568446
246	0x3c6fa1d2	0.014625983
247	0x3d2a4002	0.04156495
248	0x3d7fbd9c	0.062436685
249	0x3da6d644	0.08146337
250	0xbdaa6321	-0.083196886
251	0xbbf4af68	-0.007467199
252	0xbdb0f08a	-0.08639629
253	0xbd4c2d2e	-0.049847774
254	0xbdc8cda0	-0.09804845
255	0xbc14a33c	-0.009072121

network_body._body_endoder.seq_layers.0.bias f4 [128]
0	0xbda4097e	-0.08009623
1	0xbe0d8238	-0.13819206
2	0xbe1662af	-0.14686082
3	0x3e12b32c	0.14326161
4	0xbe176ff9	-0.14788808
5	0x3e216968	0.15762866
6	0xbe22fa7b	-0.15915863
7	0xbe1b91a7	-0.1519228
8	0x3e160349	0.1464969
9	0x3e1dad44	0.15398127
10	0x3e0ab60e	0.13546011
11	0xbe2a4fa4	-0.16631943
12	0xbdfd6f73	-0.12374773
13	0x3e171093	0.14752416
14	0x3e191b00	0.14951706
15	0x3e1eb099	0.15497054
16	0x3e102904	0.14078146
17	0x3e16d806	0.14730844
18	0x3e14b29e	0.14521262
19	0x3e109bdd	0.14121957
20	0xbe1e3530	-0.15449977
21	0xbe23c902	-0.15994647
22	0x3e10e812	0.14151028
23	0xbe1af71e	-0.1513333
24	0xbe28a8a0	-0.16470575
25	0x3e1d6f99	0.15374602
26	0x3e144271	0.1447847
27	0xbe22eae6	-0.15909919
28	0x3e15f8e7	0.1464573
29	0xbe22651e	-0.15858886
30	0x3e165889	0.14682211
31	0xbe21988d	-0.1578085
32	0x3e14e77c	0.1454143
33	0x3e122a4d	0.14273949
34	0x3e19a756	0.1500524
35	0x3d7a41b5	0.06109782
36	0x3e134729	0.14382614
37	0xbe14030e	-0.1445429
38	0xbe0fd4ad	-0.14045973
39	0xbdfe4801	-0.124160774
40	0x3e176a23	0.14786582
41	0x3e1a8939	0.15091409
42	0xbe1e342b	-0.15449588
43	0x3dfe63a6	0.1242135
44	0xbe14d0c4	-0.14532763
45	0x3e10bf71	0.14135529
46	0x3e0dcbfd	0.13847347
47	0x3e0e8a71	0.13919999
48	0xbe299aa0	-0.16562891
49	0xbe1a817e	-0.1508846
50	0xbe1ccad7	-0.15311752
51	0x3e0a4ba1	0.13505413
52	0xbe144e46	-0.14482984
53	0x3e1f33dd	0.15547128
54	0xbe207276	-0.15668663
55	0x3e1205ec	0.14260072
56	0x3e15782a	0.1459662
57	0x3e0c59b3	0.13706093
58	0x3e0c0151	0.13672377
59	0xbe1abb10	-0.15110421
60	0xbe118e9b	-0.14214556
61	0xbe3040cc	-0.17212218
62	0xbe1e48cf	-0.15457462
63	0x3e13c56c	0.14430779
64	0xbe210378	-0.1572398
65	0xbe235482	-0.15950206
66	0x3e1ddffd	0.15417476
67	0xbe2377d8	-0.15963686
68	0x3e1bb739	0.15206613
69	0x3e070211	0.13184382
70	0x3e1c7139	0.15277566
71	0x3e193c34	0.14964372
72	0x3e1a0b38	0.15043342
73	0x3e0df1b3	0.13861732
74	0x3e17dabc	0.14829534
75	0xbe20fb3f	-0.15720843
76	0x3e0c9eba	0.13732424
77	0xbe186b1e	-0.14884612
78	0xbe231bab	-0.15928523
79	0x3e136100	0.14392471
80	0xbe1cf8d1	-0.15329291
81	0x3e04dcd2	0.12974861
82	0x3e040607	0.12892924
83	0xbe022ed5	-0.12713178
84	0x3dc4fd8a	0.09618671
85	0x3e07a4a4	0.13246399
86	0xbe1df052	-0.15423706
87	0x3e0d0882	0.13772777
88	0x3dbba124	0.091615945
89	0x3de97ae3	0.11400392
90	0xbe0c744f	-0.13716243
91	0xbe2d5eec	-0.16930741
92	0xbe189872	-0.14901903
93	0x3e16f77e	0.14742848
94	0x3e21099c	0.15726322
95	0x3e06550c	0.1311838
96	0x3e1644a0	0.14674616
97	0x3e0b66c8	0.13613427
98	0xbe207103	-0.1566811
99	0x3e0c14e2	0.13679841
100	0xbe15fa8f	-0.14646362
101	0xbe12e03b	-0.1434335
102	0xbe1f3e56	-0.15551123
103	0x3e13fb28	0.14451277
104	0x3e12357c	0.14278215
105	0x3d275417	0.04085168
106	0x3e157207	0.14594279
107	0x3e19d629	0.15023102
108	0x3e0b1ab5	0.13584407
109	0x3e1d488a	0.15359703
110	0xbe180018	-0.14843786
111	0x3cd352d7	0.025796337
112	0x3e13a158	0.14417017
113	0x3e179934	0.14804536
114	0xbe0d969c	-0.13826984
115	0xbe2306ea	-0.15920606
116	0xbd91e434	-0.071236044
117	0x3e235584	0.1595059
118	0x3e16dbbe	0.14732262
119	0x3e1831be	0.14862725
120	0x3e1c0ce8	0.15239298
121	0x3db0ad7e	0.08626841
122	0xbe1f5043	-0.15557961
123	0x3e0943bf	0.1340475
124	0x3e14ab39	0.14518441
125	0xbe1a00d7	-0.15039383
126	0x3e1a376c	0.15060204
127	0x3e086084	0.13318068

network_body._body_endoder.seq_layers.2.weight f4 [128, 128]
0	0x3e7a9f80	0.24474907
1	0x3c9052ce	0.01761761
2	0x3df52690	0.11970246
3	0xbd8fbf4a	-0.07018907
4	0x3e36859a	0.17824402
5	0xbdf53c93	-0.11974444
6	0x3dc82c61	0.097740896
7	0x3d85ed38	0.065393865
8	0xbb09f3ce	-0.002104986
9	0xbe17903d	-0.14801116
10	0xbdcc79b4	-0.099841505
11	0xbda314a9	-0.07962925
12	0x3cc2757d	0.023737663
13	0xbd393562	-0.045216925
14	0x3c40b720	0.01176241
15	0x3d42d53b	0.047566634
16	0xbe0b0c37	-0.13578878
17	0xbc00017d	-0.007812855
18	0xbdac88bb	-0.08424517
19	0xbdc6fb87	-0.09715944
20	0x3e5bc18b	0.2146055
21	0xb720c2c3	-9.58209e-06
22	0xbd63ab1d	-0.05558311
23	0x3dfeaf46	0.124357745
24	0x3ddae33c	0.10687873
25	0xbd880a94	-0.066426426
26	0xbe11e4f7	-0.142475
27	0x3e43c54b	0.1911823
28	0xbdfe4042	-0.124146
29	0x3e297509	0.16548552
30	0xbda36b64	-0.079794675
31	0x3e3c4308	0.18384945
32	0x3ca90bff	0.020635603
33	0x3cd952f8	0.02652882
34	0xbd5518b9	-0.05202553
35	0xbb3ea3c9	-0.0029089323
36	0xbe1e5f4e	-0.15466043
37	0x3e3aa55c	0.18227142
38	0x3c4fdf21	0.012687475
39	0x3e3ead56	0.1862081
40	0xbdd35abb	-0.1032004
41	0xbc9716ec	-0.018443547
42	0x3e53605c	0.20642227
43	0xbdcdfe3b	-0.10058256
44	0xbd0d7509	-0.03453544
45	0x3dbe26c1	0.092847355
46	0xbdcc0beb	-0.09963211
47	0xbe007a28	-0.12546599
48	0xbcf44335	-0.029817203
49	0x3ea40801	0.32037356
50	0x3db01191	0.085971005
51	0xbd95a6a2	-0.07307173
52	0xbd34f6c8	-0.04418066
53	0xbe12e297	-0.1434425
54	0x3ce0e8d3	0.02745477
55	0x3c8e5ef2	0.017379258
56	0x3c148648	0.009065218
57	0xbdfe8229	-0.1242717
58	0xbd67810c	-0.056519553
59	0x3d9971d4	0.07492414
60	0xbd0bca09	-0.034128223
61	0x3cb8bbf2	0.022550557
62	0x3d81d112	0.06338705
63	0xbe2717d5	-0.16317685
64	0xbdc7a8b7	-0.09748977
65	0x3e3d0843	0.18460183
66	0x3d1d6160	0.038422942
67	0x3da1a93d	0.07893608
68	0xbdd14a31	-0.10219229
69	0x3c7358ee	0.014852745
70	0xbde9ec3c	-0.11422011
71	0xbdba7771	-0.09104813
72	0xbccbecaa	-0.024893124
73	0xbe21d1f9	-0.15802754
74	0x3d3fd097	0.046829786
75	0x3d8f2635	0.06989709
76	0xbc32088e	-0.010866297
77	0x3d39ade0	0.045331836
78	0x3d8a8b66	0.067648694
79	0xbdc13120	-0.09433198
80	0xbdad0518	-0.08448237
81	0xbe213fd8	-0.1574701
82	0xbe63bed0	-0.22240758
83	0x3d849cb0	0.06475198
84	0xbde7fa0e	-0.11326991
85	0xbdf263ad	-0.11835418
86	0x3dbbc8f4	0.09169188
87	0x3c8dcb4f	0.01730886
88	0xbdd554f5	-0.10416595
89	0x3cb52f25	0.022117207
90	0x3cdccac7	0.02695216
91	0xbddb96c9	-0.10722119
92	0x3dd78349	0.105230875
93	0xbda2f666	-0.07957153
94	0xbe8af5b2	-0.27140576
95	0x3cf19ba3	0.029493159
96	0xbde7b26b	-0.113133274
97	0xbe2adfb7	-0.16686903
98	0x3e168001	0.14697267
99	0xbe328a0b	-0.17435472
100	0x3ddfaccb	0.109216295
101	0x3e20c929	0.15701737
102	0x3d2482d5	0.040163834
103	0xbdc640ba	-0.09680314
104	0xbddb7b35	-0.10716859
105	0x3e533f68	0.20629656
106	0xbd69d87e	-0.05709123
107	0xbe5849fe	-0.21121976
108	0x3e6074e0	0.21919584
109	0x3cfa42db	0.030549457
110	0x3d32d514	0.04366024
111	0xbd5e54c8	-0.054280072
112	0xbdfd8f11	-0.123808034
113	0xbc5f6655	-0.013635238
114	0x3e0a4c79	0.13505735
115	0x3d8d4ee8	0.06899816
116	0xbd62f852	-0.055412598
117	0xbdbf445c	-0.093392104
118	0xbe085842	-0.13314918
119	0x3c38d71a	0.011281753
120	0xbd92450a	-0.071420744
121	0xbe735631	-0.23763348
122	0x3daeaffa	0.085296586
123	0xbe52c491	-0.20582797
124	0xbd2657b4	-0.040610984
125	0xbe0ce1c4	-0.13757998
126	0xbd9cf272	-0.0766343
127	0xbe169b07	-0.14707576
128	0x3de99bc7	0.11406665
129	0xbcc77083	-0.024345642
130	0x3e99922b	0.2999433
131	0xbdbf435d	-0.093390204
132	0x3c952035	0.018203834
133	0xbe845d45	-0.2585241
134	0x3dd257f3	0.10270681
135	0x3e5406e8	0.2070576
136	0x3c3fb316	0.011700412
137	0xbde6f265	-0.11276702
138	0xba51beda	-0.00080011564
139	0x3e4fef33	0.20306091
140	0xbd56176a	-0.052268423
141	0xbe72f648	-0.23726761
142	0x3e29183b	0.1651315
143	0x3d8ae955	0.06782786
144	0x3d169241	0.036760572
145	0xbe1bbac7	-0.15207969
146	0x3dcab310	0.09897435
147	0xbdecc3e7	-0.11560803
148	0xbd68c70b	-0.056830447
149	0x3d39a1c4	0.045320287
150	0xbcee99de	-0.029126104
151	0x3e628468	0.22120821
152	0x3e025ff7	0.1273192
153	0xbe1093b7	-0.14118849
154	0x3d0edb45	0.03487708
155	0x3ddb54c0	0.10709524
156	0xbe2a6a76	-0.16642174
157	0x3e01af83	0.12664609
158	0x3d17de1b	0.03707705
159	0x3d3bbd4b	0.04583482
160	0xbd1798c6	-0.03701093
161	0xbd9f91cc	-0.077914804
162	0xbbb41005	-0.0054950737
163	0x3c9771c2	0.018486861
164	0xbd5b56ba	-0.053549506
165	0x3e0511b1	0.1299503
166	0x3d806b18	0.062704265
167	0x3e09fbf4	0.13475019
168	0xbe0feef7	-0.14056002
169	0xbd40afbf	-0.047042605
170	0x3cc13cac	0.0235885
171	0x3dd0b42b	0.10190614
172	0xba9504bc	-0.0011369209
173	0xbd62ec02	-0.055400856
174	0xbd254897	-0.04035243
175	0xbdfa6e27	-0.12228041
176	0x3d05f1a4	0.03270115
177	0x3de0ff9e	0.10986255
178	0x3d89d596	0.067301914
179	0xbe0fbb4d	-0.14036293
180	0x3da4ee46	0.080532596
181	0x3dba2775	0.09089557
182	0x3e40b02c	0.18817204
183	0xbd8111c9	-0.063022204
184	0xbd226ef6	-0.0396566
185	0xbe15841b	-0.14601175
186	0x3dd35b79	0.103201814
187	0x3e023f83	0.1271954
188	0xbb3cc5b9	-0.0028804375
189	0x3e6de1e7	0.23230706
190	0xbc9c8ce6	-0.019110154
191	0xbe08d1e2	-0.13361314
192	0x3d43f4de	0.047840945
193	0x3c91b290	0.01778534
194	0xbe629df3	-0.22130565
195	0xbc0c2354	-0.008553345
196	0xbde745f5	-0.1129264
197	0xbe0bb6fb	-0.1364402
198	0xbdb50dd8	-0.08840531
199	0xbe04a3d8	-0.12953126
200	0xbd3a7096	-0.045517527
201	0xbc5aee9c	-0.013362553
202	0x3ddbe199	0.10736389
203	0x3e04dcc9	0.12974848
204	0xbdb895b8	-0.090129316
205	0xbe45e25e	-0.19324633
206	0xbd97cd7c	-0.0741224
207	0x3cc323d7	0.0238208
208	0x3c974a00	0.018467903
209	0xbcb88f0a	-0.022529144
210	0xbe33c15f	-0.17554234
211	0xbe4b711e	-0.1986737
212	0xbd29d5a5	-0.041463513
213	0xbdd67728	-0.10471946
214	0x3e2b352c	0.16719502
215	0x3d282225	0.041048188
216	0xbd11a95a	-0.035561897
217	0xbe28565b	-0.16439192
218	0x3d37634d	0.044772435
219	0x3defea8e	0.1171466
220	0x3d85810c	0.06518754
221	0xbe05809b	-0.1303734
222	0xbe516e39	-0.20452203
223	0xbdac7af2	-0.084218875
224	0xbe0a847d	-0.13527103
225	0xbdf2a0bf	-0.11847066
226	0xbc7a43ab	-0.015274922
227	0xbc7f945f	-0.015599339
228	0x3e6de2de	0.23231074
229	0xbc53d724	-0.0129297115
230	0xbd07bf85	-0.03314163
231	0x3bd16af2	0.0063909227
232	0xbdd28238	-0.102787435
233	0x3b1e2368	0.002412999
234	0xbc9f65bd	-0.019457692
235	0xbd2c424e	-0.04205542
236	0xbe142d79	-0.14470471
237	0xbdf1c40d	-0.11804972
238	0x3bb4b846	0.005515131
239	0x3e226f93	0.15862875
240	0xbdebc734	-0.11512604
241	0xbe712d4f	-0.2355244
242	0x3d16dbca	0.0368307
243	0x3cd82be1	0.02638811
244	0xbd018a8e	-0.031626277
245	0xbe20ae2e	-0.15691444
246	0xbd4b472d	-0.049628425
247	0xbd50b2f3	-0.05095191
248	0x3d29ba83	0.041437637
249	0x3d3bc78f	0.04584461
250	0x3df42d09	0.11922652
251	0xbe2e1d9a	-0.1700348
252	0xbcf48c95	-0.029852191
253	0xbb81fb4d	-0.003966725
254	0xbd8ce0ab	-0.068787895
255	0xbcce01f8	-0.025147423

network_body._body_endoder.seq_layers.2.bias f4 [128]
0	0xbdad92fd	-0.084753014
1	0xbdb3e5f5	-0.08784095
2	0xbdc9da8f	-0.0985614
3	0x3e089af8	0.13340366
4	0x3da55c21	0.08074213
5	0x3dc4099b	0.095721446
6	0x3df7f42e	0.121071205
7	0x3decdf24	0.11565998
8	0x3e045d86	0.12926301
9	0xbdd1e745	-0.10249189
10	0xbdbfe962	-0.09370686
11	0x3e11cf89	0.14239325
12	0x3dc92b93	0.09822764
13	0x3db681e5	0.08911494
14	0xbdc97256	-0.09836261
15	0x3dee3c7d	0.11632631
16	0x3e06b9de	0.1315684
17	0x3e06bf91	0.13159014
18	0x3e1e57a2	0.15463117
19	0xbdb494ba	-0.0881743
20	0x3e0d459c	0.13796085
21	0x3d8e1a6b	0.069386326
22	0x3e107601	0.14107515
23	0xbdcaae6c	-0.098965496
24	0xbddb1fad	-0.10699401
25	0x3e0b9efc	0.13634866
26	0xbdcbef07	-0.099577
27	0x3e134cf1	0.1438482
28	0xbdbf8e4e	-0.09353314
29	0x3dfe4e0a	0.124172285
30	0xbdd61284	-0.1045275
31	0xbdc21e58	-0.09478444
32	0xbdb28acf	-0.08717882
33	0x3df3e22b	0.119083725
34	0xbdb2255d	-0.08698533
35	0xbdcb9411	-0.09940351
36	0xbdb74cf9	-0.08950228
37	0x3dcb451b	0.0992529
38	0x3d44de15	0.048063356
39	0xbdc35f9f	-0.09539723
40	0xbcfb517d	-0.030678505
41	0x3d8ee617	0.0697748
42	0xbdb0d004	-0.08633426
43	0xbdb9566d	-0.090496875
44	0xbdc1236f	-0.094305865
45	0x3e02dc6b	0.12779395
46	0xbddf533c	-0.109045476
47	0xbdc2c802	-0.09510805
48	0x3cd46010	0.025924712
49	0xbdaa8ec2	-0.0832801
50	0xbdd5938f	-0.10428535
51	0xbdcc72e3	-0.099828504
52	0xbda2a165	-0.0794094
53	0xbdbfeb86	-0.093710944
54	0x3e120165	0.14258344
55	0x3e13f34b	0.14448278
56	0x3d4f937b	0.050677758
57	0x3e087bde	0.13328502
58	0xbdc598ea	-0.09648307
59	0x3dc3af4f	0.09554922
60	0x3dfab2f4	0.12241164
61	0x3cf8fff0	0.030395478
62	0xbdad9df5	-0.084773935
63	0x3dee45af	0.11634385
64	0xbdcc7cd7	-0.09984749
65	0x3df9f267	0.12204438
66	0xbdbcb238	-0.0921368
67	0xbde2abbb	-0.11067911
68	0xbde203d1	-0.11035884
69	0x3e001474	0.12507802
70	0xbdb9ebe6	-0.09078197
71	0xbdac6772	-0.08418168
72	0xbdc0035b	-0.0937564
73	0xbdb67a3a	-0.089100316
74	0x3e16623b	0.1468591
75	0x3dfa6136	0.12225573
76	0x3e087cdd	0.13328882
77	0xbdb46a4a	-0.088093355
78	0xbdc6a5d8	-0.09699601
79	0xbdd45a40	-0.10368776
80	0xbdd352b3	-0.10318508
81	0x3e11c2a7	0.1423441
82	0x3ded1201	0.115756996
83	0xbdd6a684	-0.10480979
84	0x3e110014	0.14160186
85	0xbdc47719	-0.095930286
86	0xbddbfaff	-0.10741233
87	0xbda7aca2	-0.08187224
88	0x3d775f0a	0.06039337
89	0x3e08ae95	0.13347848
90	0x3e0c185d	0.13681169
91	0x3df138c7	0.117784075
92	0xbdaf384b	-0.08555659
93	0xbddb3ad8	-0.10704583
94	0xbdb10122	-0.08642794
95	0xbdc63482	-0.09677984
96	0xbdc48c82	-0.09597112
97	0x3da3f18c	0.08005056
98	0xbdbca321	-0.09210802
99	0xbd561bfb	-0.052272778
100	0xbdc21058	-0.094757736
101	0xbde64cbf	-0.11245107
102	0x3e0df869	0.13864292
103	0x3e0c985f	0.1373
104	0x3e0a0751	0.13479353
105	0xbdb5c5a6	-0.08875589
106	0xbdcf21b6	-0.10113852
107	0x3d8690ef	0.06570613
108	0x3e0c48ed	0.13699694
109	0x3dca12af	0.09866845
110	0x3d10691a	0.035256483
111	0xbd866bda	-0.0656354
112	0xbdadfd3b	-0.084955655
113	0x3e08b7b2	0.13351324
114	0xbde37db0	-0.11107957
115	0x3df6d113	0.120515965
116	0x3e05923c	0.13044065
117	0xbde80fda	-0.113311484
118	0xbdbaaeb9	-0.09115357
119	0xbbb8b6d0	-0.0056370273
120	0x3be76afe	0.007062315
121	0xbdc76f10	-0.0973798
122	0x3e0827b5	0.13296397
123	0x3e10b18d	0.1413023
124	0x3e1560af	0.14587663
125	0xbdc1a200	-0.09454727
126	0xbdb9d3b7	-0.090735845
127	0x3e0d07de	0.13772532

action_model._discrete_distribution.branches.0.weight f4 [4, 128]
0	0xbcdbd93f	-0.02683699
1	0xbc9238d0	-0.017849356
2	0xbcd05918	-0.025433108
3	0x3d041e5e	0.032255523
4	0x3d529654	0.051412895
5	0x3d96b3fc	0.07358548
6	0x3d0c6d9e	0.034284227
7	0x3d375b3b	0.04476474
8	0x3d01c1b7	0.03167888
9	0xbc15a6ee	-0.009134037
10	0xbceb32d8	-0.028710768
11	0x3d3e14b0	0.046406448
12	0x3ca6317f	0.020287273
13	0x3d18e78f	0.037330206
14	0xbd1cf270	-0.038317144
15	0x3d4a8a90	0.04944855
16	0x3ce04a80	0.027379274
17	0x3d2c3b95	0.04204901
18	0x3ccd4d19	0.025061177
19	0xbc890ddd	-0.016730243
20	0x3cbfb2e2	0.023400728
21	0x3d5e537c	0.054278836
22	0x3cdb2764	0.026752181
23	0xbcf3964c	-0.029734753
24	0xbcf82e4f	-0.03029552
25	0x3d170767	0.036872294
26	0xbcac2a04	-0.021016128
27	0x3d0acf95	0.033889372
28	0xbd090aa6	-0.03345742
29	0x3d30221e	0.043001287
30	0xbd06a859	-0.032875393
31	0xbc671d34	-0.014106084
32	0xbd24dedb	-0.040251594
33	0x3c43c6f6	0.011949291
34	0xbb2e7383	-0.0026619143
35	0xbd323630	-0.04350871
36	0xbc58602a	-0.013206521
37	0x3d54f07b	0.051987153
38	0xbd3f8453	-0.046757054
39	0xbc10a978	-0.008829467
40	0x3cc51929	0.024059849
41	0x3b75e679	0.0037521406
42	0xbc8740cd	-0.016510392
43	0xbd0b7ed3	-0.034056496
44	0xbcc2bdeb	-0.0237722
45	0x3d2c2ece	0.042036824
46	0xbcb2dbef	-0.021833388
47	0xbc5dd33e	-0.013539134
48	0x3d5f60c6	0.05453565
49	0xbd1d56e6	-0.03841295
50	0xbcadbcae	-0.021208134
51	0xbd0083ce	-0.0313757
52	0xbcec7a86	-0.028867017
53	0xbc9d94b1	-0.01923594
54	0x3cb31c9a	0.021864224
55	0x3d072240	0.032991648
56	0x3d7036b5	0.058645923
57	0x3cb54d2f	0.02213153
58	0xbd1ddd55	-0.038541157
59	0x3c5ea443	0.013588968
60	0x3cc300b7	0.023804052
61	0x3d02ca71	0.031931344
62	0xbc225bef	-0.009909614
63	0x3cf57cc5	0.029966721
64	0xbce374ae	-0.027765598
65	0x3c323360	0.010876507
66	0xbc1d60e0	-0.009605616
67	0xbcbea795	-0.023273269
68	0xbd005da6	-0.03133931
69	0x3d044d99	0.032300565
70	0xbd3dd15f	-0.04634225
71	0x3b15f510	0.0022881664
72	0xbcb60b8d	-0.022222305
73	0xbd43f0a9	-0.047836933
74	0x3c99ffca	0.018798728
75	0x3d16bdd6	0.036802135
76	0x3d38ddd2	0.04513342
77	0xbc8532fb	-0.016259661
78	0xbd1ca35c	-0.03824173
79	0xbcd9190c	-0.026501201
80	0xbc9a8964	-0.018864341
81	0x3d0d30cc	0.034470364
82	0x3d40cc1b	0.04706965
83	0xbccac92d	-0.024754131
84	0x3d01da48	0.03170231
85	0xbd1274e4	-0.035756007
86	0xbcfb818e	-0.030701425
87	0xbd08617e	-0.0332961
88	0x3d10bd60	0.035336852
89	0x3d41907c	0.04725693
90	0x3cacbfd9	0.021087574
91	0x3cd91407	0.026498808
92	0xbc3ea224	-0.011635337
93	0xbc6b5d89	-0.014365562
94	0xbca4323a	-0.020043481
95	0xbcde9da7	-0.027174784
96	0xbc9d1847	-0.019176615
97	0x3d850c2d	0.06496463
98	0xbcbb782c	-0.02288445
99	0xbca09580	-0.019602537
100	0xbd071fc9	-0.032989297
101	0xbcaa1fd9	-0.02076714
102	0x3ccb1ec0	0.024794936
103	0x3d25e0ed	0.04049771
104	0x3d173004	0.036911026
105	0xbcce459c	-0.025179677
106	0xbd04928d	-0.032366324
107	0x3d2a34dc	0.041554317
108	0x3d3117f9	0.043235753
109	0x3d4fdb1b	0.050746065
110	0x3d22e010	0.039764464
111	0xbbe2af30	-0.0069178566
112	0xbc613586	-0.013745671
113	0x3d168688	0.036749393
114	0xbcd8c422	-0.02646071
115	0x3c968ba7	0.018377138
116	0x3d1d2702	0.03836728
117	0xbd09c7da	-0.03363786
118	0xbd5077c3	-0.050895464
119	0xbd547ef2	-0.051878877
120	0x3d0745df	0.03302562
121	0xbc9f25f8	-0.019427285
122	0x3cc97d3b	0.024595847
123	0x3d2e87d0	0.04260999
124	0x3d1a5828	0.03768173
125	0xbd002d21	-0.03129304
126	0xbd3080e7	-0.04309168
127	0x3cf68ab3	0.030095434
128	0xbd70f963	-0.058831584
129	0xbd8bcff1	-0.06826771
130	0xbd47253a	-0.048619486
131	0x3d1c5043	0.03816248
132	0x3c84c44d	0.016206885
133	0x3ce3a42f	0.02778825
134	0x3d5f228f	0.054476317
135	0x3cc1d79d	0.023662383
136	0x3d38feff	0.04516506
137	0xbd1f952c	-0.03896062
138	0xbd8fd79f	-0.07023548
139	0x3d0aa5b4	0.033849433
140	0x3ccb3de6	0.024809789
141	0x3ba669f7	0.00507855
142	0xbd82fd73	-0.06395998
143	0x3ce5503b	0.027992358
144	0x3d0e9e27	0.034818795
145	0x3d22e413	0.03976829
146	0x3cb24f89	0.021766441
147	0xbd88b189	-0.06674487
148	0x3ceb8fea	0.028755147
149	0x3cdaa332	0.026689146
150	0x3d266e07	0.040632274
151	0xbd6fbcb8	-0.058529586
152	0xbd74db23	-0.059779298
153	0x3d30b062	0.04313696
154	0xbd807dc8	-0.06273991
155	0x3d351a4a	0.044214524
156	0xbd9a96ba	-0.0754828
157	0x3ce34a70	0.027745456
158	0xbd89a576	-0.06721012
159	0xbd857d3d	-0.06518028
160	0xbda322f4	-0.07965651
161	0x3d08d2ae	0.033404045
162	0xbd3b7d46	-0.045773767
163	0xbd6caf8d	-0.057784606
164	0xbd8e178c	-0.06938085
165	0x3ca3ece8	0.020010427
166	0x3d8398aa	0.06425603
167	0xbd5cbd0e	-0.053891234
168	0xbda1270e	-0.07868777
169	0x3d3c3375	0.04594751
170	0xbd96820b	-0.073490225
171	0xbd98a443	-0.074532054
172	0xbd77c5c9	-0.060491357
173	0x3d056016	0.032562338
174	0xbd7d6b14	-0.061869696
175	0xbd822a8c	-0.063557714
176	0x3b8c6f55	0.0042857327
177	0xbd84d9a6	-0.06486826
178	0xbd7d0e2b	-0.06178109
179	0xbd767915	-0.060174067
180	0xbd9ceb19	-0.07662029
181	0xbd9b0007	-0.075683646
182	0x3d185d08	0.037198097
183	0x3ceb4d1c	0.028723292
184	0xbcc56685	-0.024096737
185	0x3d0a95cd	0.033834267
186	0xbd6bc5dd	-0.057561744
187	0x3d935b1d	0.07195113
188	0x3ce828ae	0.02833971
189	0xbcb51fb5	-0.022109846
190	0xbd2bc751	-0.04193813
191	0x3c93cfc9	0.018043416
192	0xbd7be061	-0.06149328
193	0x3d1f9659	0.038961742
194	0xbd6bd54b	-0.05757646
195	0xbd727936	-0.059197627
196	0xbd49626c	-0.049166128
197	0x3d2ef5f4	0.042715028
198	0xbd8ef116	-0.06979577
199	0xbd3f4274	-0.046694234
200	0xbd80537e	-0.06265925
201	0xbd3cd120	-0.046097875
202	0x3d0e62e5	0.034762282
203	0x3cc9c213	0.024628675
204	0x3d2fdc1d	0.042934526
205	0xbda17d11	-0.07885183
206	0xbd42aae5	-0.04752626
207	0xbd5303f7	-0.051517453
208	0xbd81b2dd	-0.063329436
209	0x3cdf980f	0.027294187
210	0x3ccbab82	0.024862055
211	0xbd590598	-0.05298385
212	0x3d16b9b5	0.036798198
213	0xbd589282	-0.052874096
214	0xbd160c2e	-0.03663271
215	0xbd94d763	-0.07267644
216	0xbb2003b1	-0.0024416263
217	0x3d024ef6	0.031813584
218	0x3cc0590c	0.02347996
219	0x3d504074	0.050842717
220	0xbda04fc8	-0.07827717
221	0xbd7e7454	-0.062122658
222	0xbd84bb33	-0.06481018
223	0xbd8f9086	-0.070099875
224	0xbd7c1d91	-0.061551634
225	0x3c3797cd	0.011205626
226	0xbd497ed5	-0.049193222
227	0xbd285992	-0.041101046
228	0xbd5a73e1	-0.053333167
229	0xbd4c5b1e	-0.049891584
230	0x3cfb4037	0.030670268
231	0x3cf8230a	0.030290145
232	0x3d1479c9	0.036248956
233	0xbd8c69c4	-0.06856111
234	0xbd0fb582	-0.03508521
235	0x3cb00db8	0.021490917
236	0x3d35d731	0.044394676
237	0x3cfefb1d	0.0311256
238	0xbadb8a40	-0.0016749576
239	0xbd8d1f22	-0.06890704
240	0xbd84e67b	-0.06489273
241	0x3d0159ad	0.031579662
242	0xbd5523f7	-0.052036252
243	0x3ceed317	0.02915339
244	0x3d0c29ee	0.034219675
245	0xbd5cae4b	-0.053877156
246	0xbd74d17d	-0.059770096
247	0x3d2c0f89	0.042007003
248	0xbcec91b9	-0.02887808
249	0xbd78e478	-0.06076476
250	0x3d300f41	0.042983297
251	0x3d39b448	0.045337945
252	0x3d3311c1	0.043718103
253	0xbd483a53	-0.048883747
254	0xbd92d4a6	-0.07169466
255	0x3d23309f	0.03984129

action_model._discrete_distribution.branches.0.bias f4 [4]
0	0x3d04b443	0.032398473
1	0x3d4971f2	0.049180932
2	0xbc3e9107	-0.011631257
3	0xbda9549f	-0.08268093
